trained-model/b11.npy (npy, 640 bytes, 1 tensors)

array f4 [128]
000000 56 c0 eb 3e c6 e7 dd bc 71 9e 0f be 7a fd a6 bd
       0.46045178 -0.027088057 -0.14025284 -0.081538156
000010 d6 f4 84 3e de 43 d7 bd 15 8b dd be f7 9f 68 be
       0.25968045 -0.105109915 -0.43270174 -0.22717272
000020 c4 fe 52 bd d2 29 5a 3e f8 43 09 be bf 37 a1 be
       -0.051512495 0.21305016 -0.13404834 -0.31487843
000030 f7 05 ef bc d7 d8 f4 3b 30 13 ff 3d 8a ef 91 3d
       -0.029177649 0.0074721384 0.124548316 0.071257666
000040 62 e1 f5 be 71 62 0c bd 63 03 ed be 75 0f a8 3e
       -0.48023516 -0.03427357 -0.46291646 0.32824293
000050 f2 1a 2c bd 12 d0 27 3e b6 84 96 3e 75 35 70 be
       -0.042017885 0.16387966 0.29398125 -0.23457892
000060 10 4f f1 3d af 88 ae be ac 7a 6b 3e de ab 81 3e
       0.11782658 -0.34088656 0.22996014 0.25326437
000070 09 e4 55 be 9f e2 c1 3e 0a f2 fb bd bc 00 9a be
       -0.2088777 0.3786821 -0.12302025 -0.30078685
000080 5e 97 b1 be 7b b8 86 be c8 2e 7c bd 65 5b d4 be
       -0.34685796 -0.26312622 -0.06156805 -0.41475978
000090 79 3d 65 3d 54 09 81 3d e0 34 80 be 07 87 54 bc
       0.055966828 0.06300607 -0.2504034 -0.012971646
0000a0 56 a1 c5 be b5 9b aa be 1a 43 4d 3e 50 8f eb 3e
       -0.38599652 -0.3332192 0.20045128 0.46007776
0000b0 75 36 4d 3e 11 c7 26 be 23 dd 3b 3e 55 72 6e 3e
       0.20040305 -0.16286875 0.18346076 0.23285802
0000c0 52 08 9d 3e 3c cc 9f bd 54 f5 3c 3e 9e d5 12 3e
       0.3067041 -0.078026265 0.1845296 0.14339301
0000d0 44 fd c9 bd 79 67 d0 bc e4 b4 1c bd c1 72 c2 3e
       -0.0986276 -0.025439965 -0.03825845 0.37978175
0000e0 61 4f 8d be 22 05 64 3d a7 e7 a9 3e b6 8c 13 3e
       -0.27599624 0.055668958 0.3318455 0.14409146
0000f0 45 3e c5 bd 38 ce 33 3f 5a 7a 19 3e 6c ec 37 3e
       -0.096310176 0.7023654 0.1498808 0.17961282
000100 58 4b 97 3b ec 73 07 be 1d 67 aa be e1 ec 35 bd
       0.004617136 -0.13227814 -0.33281794 -0.04441536
000110 8d fe 2c 3e ba 6c 43 be a3 2e 30 bc fd 46 ce bd
       0.16893978 -0.19084445 -0.010753307 -0.10072134
000120 ed a1 4e be ce e5 e4 bc 27 a1 c5 3c d2 ca 7c 3e
       -0.20178957 -0.02794161 0.024124695 0.24686745
000130 fa 04 e2 3c 16 e3 19 3e 1f 6b 99 bb 45 38 f5 3e
       0.027590264 0.15028033 -0.0046819593 0.47894493
000140 1e 2e 0c 3e 55 9c ee 3d b5 83 bf 3d 77 06 35 bd
       0.13689467 0.11650912 0.09351293 -0.04419562
000150 e4 b8 1a be 24 5a 2a 3d f2 1e eb 3e 3a 37 83 3d
       -0.15109593 0.04158987 0.45922047 0.06407018
000160 9b 98 76 3e 08 ac df bd a9 ac d2 3c 8b 37 d4 3e
       0.24081652 -0.10921484 0.025717096 0.41448626
000170 eb 37 0d 3e c6 bb 59 be 6b ad d9 be 29 4b 95 bd
       0.13790862 -0.21263036 -0.4251512 -0.07289726
000180 d6 fc 70 bc 23 c0 e6 3d cb ee f4 bb 1b 9c 6c be
       -0.014708718 0.11267116 -0.0074747554 -0.23106425
000190 49 ee 16 3c cd 54 40 3e 79 7c 92 3d 9b d1 2a 3e
       0.009212085 0.18782349 0.071526475 0.1668152
0001a0 83 b7 34 3c 9e a9 b8 3e f5 8c d6 bd 59 16 37 be
       0.011030081 0.36066908 -0.10476104 -0.17879619
0001b0 a2 b1 ba 3e 83 5b 74 3e a3 5a bc bd d8 df cd be
       0.36463648 0.23863034 -0.09196975 -0.40209842
0001c0 d8 f5 f2 3d f5 ae 95 bd f7 eb a4 bd cc e5 1a be
       0.11863297 -0.07308761 -0.08052819 -0.15126723
0001d0 c0 8a e5 be a7 c1 6e be d7 10 4d bd 2d 5c 22 bf
       -0.4483242 -0.2331606 -0.050064888 -0.634219
0001e0 a2 5d 36 3e 23 3e b3 bd 7a b8 2b be fc a4 1c 3e
       0.17809156 -0.08752086 -0.16769591 0.15297312
0001f0 c5 bc 9c bc 74 0b 0c 3e a9 55 b1 3e b8 3a 04 bf
       -0.019132981 0.13676244 0.34635666 -0.516521
