trained-model/b7.npy (npy, 528 bytes, 1 tensors)

array f4 [100]
00000000: fac1 32be f6e0 983e 7cb0 60be 5c42 40be
00000010: 4c55 50be 7729 ccbd 1214 913d 3580 4abe
00000020: 67da fdbd 0150 24bd dec0 dc3e 3983 753c
00000030: 68de 9e3e 71fd 083f 0142 443f 0c30 b33e
00000040: 0b42 1b3f bc74 b2bc 5856 f7bd a53e 32be
00000050: 677a 9d3e fe43 053f 034e 09be c1c2 d3bd
00000060: 4037 5bbe c2dd 14be fd50 363f e5a9 93bb
00000070: 2b81 593e 3f17 7cbc 76a0 38bc 1820 d2bd
00000080: 0917 323d 0649 893e 923d f3bd a9c0 a8be
00000090: 5714 a8be 868a ce3d 4620 883c e447 783e
000000a0: 6f42 ddbd 868a 623e 8a8f 553e 63c4 9fbd
000000b0: 74b7 74bb 0467 86bd 3aa8 fa3e 572e 083d
000000c0: 765b 2abd e723 103d 2044 963e 315c 23be
000000d0: 5cb1 ef3a e6bd 073f 8b3d 10be db42 1d3f
000000e0: efc2 223e 9d88 353f c561 4dbe fb89 543d
000000f0: 534c 77bd 8e0f 7e3e a447 833d a077 dfbc
00000100: cf07 553f 0492 91bc 4679 423e 8794 82be
00000110: 9476 21bd da86 8bbe e01d 433e 3a08 edbd
00000120: f57d 473e 90a1 913e 706e a93e e188 39bd
00000130: 71d3 92bc 7f9b 18be f2e6 063d 5f81 c53d
00000140: fb3a 513f 7e95 1ebe f0fa 73b8 add7 98be
00000150: 0d1a 003e ae06 b9bc 4a8b 283f 47e1 6f3c
00000160: d8ff 153e 2e21 d23d 145e e93d c21a 2f3f
00000170: 66b4 163f 0793 f5bd 8ba7 34be d7a8 683e
00000180: 5cb5 153f 982e 4dbd a4c4 8ebd a3c0 9e3e
-0.17456809 0.29859132 -0.21942323 -0.18775314 -0.20345038 -0.09968846 0.07083906 -0.1977547
-0.123951726 -0.04011536 0.43115896 0.014984899 0.31029058 0.5351172 0.76663214 0.34997594
0.6064765 -0.021784179 -0.12077016 -0.1740671 0.30757448 0.5205687 -0.13408665 -0.10339881
-0.21407795 -0.14537719 0.7121733 -0.004506337 0.2124068 -0.015386402 -0.011268726 -0.10260028
0.043479 0.26813525 -0.11876978 -0.32959488 -0.32828018 0.10085015 0.016616952 0.24246174
-0.10803687 0.22123155 0.20855537 -0.0780113 -0.0037340792 -0.065626174 0.48956472 0.033247318
-0.04159113 0.03519049 0.2934885 -0.15953137 0.001828711 0.5302414 -0.14085977 0.6143014
0.15894674 0.7091158 -0.20056827 0.0518894 -0.060375523 0.24810621 0.06410149 -0.027278721
0.8321504 -0.017769821 0.18991575 -0.25503942 -0.039419726 -0.2725132 0.19054365 -0.11573835
0.19481643 0.28443575 0.3309207 -0.045296554 -0.017923089 -0.14903067 0.03293509 0.09643816
0.8173062 -0.15486714 -5.816942e-05 -0.29852048 0.12509938 -0.022586193 0.6583754 0.014641113
0.14648378 0.10260235 0.11394897 0.68400204 0.58869016 -0.11990934 -0.17642038 0.22720657
0.5847986 -0.050093263 -0.069711 0.31006345
