trained-model/b8.npy (npy, 528 bytes, 1 tensors)

array f4 [100]
00000000: 9c46 80be b7c7 2ebe 02eb 42bd dfc1 9e3d
00000010: 2d22 39be 2623 7abe 4d65 b83d ad2c 093e
00000020: cd41 6fbc 20c3 e13d d1dd b8bd 3506 99be
00000030: 6fc2 7fbe cc26 c5be 47d1 29be 0b1b 6fbe
00000040: 3842 773c b62a 013d 3eeb 68be 7868 e6bb
00000050: a42a b9bc a4b5 28be 4bfe 6d3e eb6d f7bd
00000060: ed25 45bd 2c29 0cbf f2c4 50be 9652 3c3d
00000070: e466 7abe 1596 d5bb 9f92 fdbd d590 2fbe
00000080: 3a8f 80be c6ce 0c3d 9317 a23e ae46 843d
00000090: 2da4 cabd 88c4 ff3d 96ee 75bd ff02 33be
000000a0: 7111 24bc 34c4 c1bd d561 8abe 3db4 b1be
000000b0: 77f6 ba3e 5312 21be a086 2cbe a4d5 c43a
000000c0: 0482 ad3e f310 9bbd 78cd 47bd 67ea 77bd
000000d0: 59d1 0cbe fef3 4e3d d1db 93be 98c4 98be
000000e0: f3c3 b23d 266f e2bd 29b5 8abd 442d 7cbe
000000f0: c4c2 d5bd 5f7b a2be a663 93be 8401 bdbc
00000100: 64e9 9cbe d8ae ccbd 89ab 60be fb1f d2bd
00000110: 5845 0cbe 1950 a0be b42a dfbd de84 113e
00000120: 3ad0 933d 4f26 7bbe 9bcf d13d ecbf c63d
00000130: a419 45be ca23 6dbd 2311 4ebb 1f2a 91be
00000140: 8c02 31be b998 8dbe cbdb a53d 67eb 443e
00000150: 303a 903e 01e8 b5be 03cb a8be d9b7 353d
00000160: 32f6 553d 9057 2c3e 9cf4 14be 3925 49be
00000170: 396f 74be 58a0 c63d 681f f6bd e746 cf3d
00000180: 208b 26bd 9ef4 93be 087a 123e 6a81 a2be
-0.2505387 -0.17068373 -0.047587402 0.07751822 -0.18079443 -0.2442747 0.090036966 0.13395949
-0.0146030905 0.11023545 -0.09026683 -0.29887548 -0.24976514 -0.38506162 -0.16583739 -0.2335016
0.015091471 0.031534873 -0.22745988 -0.0070314966 -0.02260334 -0.1647554 0.23241536 -0.12081512
-0.048131872 -0.54750323 -0.20387629 0.045977198 -0.24453312 -0.0065181353 -0.123814814 -0.17145093
-0.25109273 0.034376882 0.3165861 0.064587936 -0.09894595 0.12488657 -0.060041986 -0.17481612
-0.010013924 -0.09461251 -0.27027765 -0.34707823 0.36516163 -0.15729646 -0.1684823 0.0015017283
0.33888257 -0.07571592 -0.048779935 -0.060526278 -0.13751735 0.050525658 -0.28878644 -0.2983749
0.087287806 -0.11056356 -0.06772835 -0.24626642 -0.10437539 -0.3173475 -0.28786963 -0.023072012
-0.30646813 -0.09994286 -0.21940435 -0.10260006 -0.13698328 -0.3131111 -0.10896817 0.14210841
0.072174504 -0.24526332 0.10244676 0.09704575 -0.19248062 -0.05789546 -0.003144332 -0.28352448
-0.17286128 -0.2765558 0.08098563 0.19230424 0.28169394 -0.35528567 -0.32967386 0.044364784
0.052236743 0.16830277 -0.14546436 -0.19643106 -0.23870553 0.09698552 -0.12017709 0.101209454
-0.040660024 -0.28897566 0.14304364 -0.3173936
