trained-model/w11.npy (npy, 512128 bytes, 1 tensors)

array f4 [1000, 128]
000000 8a d1 8d be 5a 17 bc 3c 9d 7a 74 3d 4d 7f 3b bd
       -0.27698928 0.022960354 0.059687246 -0.0457757
000010 71 cd 5c 3e 76 d2 4f bd 8d 32 31 be 19 4d b8 3c
       0.21562745 -0.05073782 -0.1730444 0.0224977
000020 81 b3 32 be 98 19 75 3d 86 1e ea bc 56 53 d4 3c
       -0.17451288 0.05983886 -0.028579008 0.025918644
000030 52 18 3a 3e ee 40 22 3f 1c 6f a0 be aa 86 6f be
       0.1817334 0.63380325 -0.3133477 -0.23391214
000040 ee 5d fa bd da ad b3 be cc 43 69 be 12 d0 ad 3d
       -0.12224947 -0.35093576 -0.22779769 0.08486952
000050 68 a0 bc be b7 1d 84 be b6 71 12 3e 87 b9 1a bc
       -0.3684113 -0.2580392 0.1430119 -0.009443647
000060 23 da 2f 3e 96 e7 9b be db 30 a4 3e bf 33 19 bf
       0.17173056 -0.30450124 0.32068524 -0.59844583
000070 7b 0a 59 be ed 40 92 3e 3e 9d 04 3e 1a 4b ae bd
       -0.21195404 0.2856516 0.12950608 -0.08510418
000080 1a f4 42 bd 3a bf 18 3d 38 3e 0e 3e 32 63 2e be
       -0.047596075 0.037291743 0.13890922 -0.17030028
000090 29 3d 00 3f 11 a0 f0 3e 13 89 aa be f4 a4 b3 3d
       0.50093323 0.4699712 -0.33307704 0.08771697
0000a0 b7 b1 28 be fc 9f 61 bf 37 55 4d bc 8a 9f 44 3e
       -0.16474043 -0.8813474 -0.012532524 0.19201484
0000b0 54 79 2a 3e 7e f3 ed 3d 70 6f 97 be 7c 80 07 3e
       0.16647846 0.11618708 -0.29577208 0.13232607
0000c0 be 81 20 3f 99 63 9c 3c aa 48 1a bb 2b ef 2b 3f
       0.6269797 0.01909046 -0.0023541846 0.67161816
0000d0 f0 57 bd 3e b2 d5 9d 3e 68 55 e0 3e 8b 93 c4 3e
       0.36981153 0.308271 0.4381516 0.38393816
0000e0 aa 91 03 bf 74 0a 8f be b6 a0 07 3f d2 78 02 3f
       -0.5139414 -0.27937663 0.529796 0.5096561
0000f0 a3 c9 d2 be 55 7a ea 3e d3 95 d5 bd c5 4d 61 3e
       -0.41169462 0.45796457 -0.10428967 0.22002323
000100 de dc f5 be c1 47 f8 3e 50 ba 3f 3d d9 96 4e 3d
       -0.4802007 0.48492244 0.04680854 0.05043683
000110 bc d0 a9 3d 67 3a 33 be 8c 46 3e 3d 83 df 4f 3e
       0.08291766 -0.17502747 0.046453997 0.20300107
000120 1d 7b 4a be de 24 21 3f df 39 86 be f2 95 ff be
       -0.19773526 0.6294688 -0.26216027 -0.49919087
000130 13 c5 60 bd 8a 63 ea 3e c8 a1 9a be 47 dd ae be
       -0.054875445 0.45779067 -0.30201554 -0.34153196
000140 94 56 cb be 84 45 a1 3e c2 c2 03 3e 13 bb f1 be
       -0.3971449 0.3149835 0.12867263 -0.4721304
000150 74 ff 65 bd c5 a5 7b bc 6e 07 dd 3e 98 22 9d 3e
       -0.056151822 -0.015359347 0.4316973 0.30690455
000160 ed 30 79 be 09 87 71 be 90 c0 b9 be f1 f3 48 be
       -0.2433507 -0.23586668 -0.36279726 -0.19624306
000170 54 64 85 be 56 0a 59 be f9 cc bf 3e 9c 7f 27 be
       -0.26053107 -0.21195349 0.3746107 -0.16357273
000180 fb d7 1b bf ab 34 db 3e 78 1e 17 3e a9 a8 3e be
       -0.60876435 0.4281362 0.14757717 -0.18619026
000190 b4 b3 9a 3e c6 2c 89 3e 0b 43 a3 3d 9b 2a a8 be
       0.30215228 0.26791972 0.07971772 -0.32845005
0001a0 73 ad b3 3e a4 5c ae 3e 7b d1 dc bc f1 9a ce 3e
       0.3509327 0.34055054 -0.026955357 0.40352586
0001b0 97 59 1e 3e 0d 55 40 be 10 55 f2 be dd 69 b0 be
       0.15463863 -0.18782444 -0.47330523 -0.34455767
0001c0 85 33 06 bf 00 7c 00 bf 34 dc ee bd 6f 5f a3 bd
       -0.5242236 -0.5018921 -0.11663094 -0.07977187
0001d0 ff 59 1b bf c9 d1 a4 bb 87 1c 64 3e b4 e1 b6 3e
       -0.606842 -0.005029891 0.22276507 0.35719073
0001e0 9a 6a 21 3f 74 75 26 3b b9 62 57 bf de b2 07 3e
       0.63053286 0.0025399597 -0.84135014 0.13251826
0001f0 75 d4 2a be 99 6a f6 3e e1 1b 7a be cd fd c3 bd
       -0.16682608 0.48128203 -0.24424697 -0.09569893
000200 28 0c e1 3e c5 74 63 be fe 17 83 be 57 10 e7 3e
       0.43954587 -0.22212513 -0.25604242 0.45129654
000210 10 e7 b1 3d 67 c4 e6 be f5 c6 91 be 76 fc 97 be
       0.0868665 -0.45071718 -0.28472105 -0.296848
000220 5f 4a 77 3e d0 e2 96 3e 2e 73 8d be c6 68 e7 bd
       0.24149464 0.2946992 -0.27626938 -0.11299281
000230 0c de e9 3c d0 0e 36 be 50 51 4f 3e 21 91 60 be
       0.028548263 -0.17779088 0.20245862 -0.21930362
000240 ad f6 ce bd 9c e0 7f bd 44 3a 49 bd 94 ae a9 3d
       -0.101056434 -0.062470064 -0.049127832 0.08285251
000250 6f 23 b8 3e 3a d7 88 bc 5e 54 8f bc cb 94 0a 3d
       0.35964534 -0.01670419 -0.017496284 0.033833306
000260 9d 95 3b 3e 49 ba 9d be 69 59 a0 3d 65 6f 2f 3e
       0.18318792 -0.30806187 0.07829554 0.17132337
000270 0a 0e be be 11 88 19 be 72 a2 89 be 03 c3 c5 be
       -0.37120086 -0.14993311 -0.26881748 -0.38625345
000280 77 b3 22 3e 86 47 86 3c 34 40 aa 3d 52 b3 81 be
       0.15888773 0.016391527 0.08313027 -0.25332123
000290 78 6b 66 3e 78 18 59 3e 7e 71 bc be 39 c0 b7 be
       0.22501934 0.2120074 -0.36805338 -0.35888842
0002a0 a6 a1 40 bf ad 03 c3 3e 2f dd c7 3d 70 9e 55 3e
       -0.75246656 0.38088742 0.09758984 0.2086122
0002b0 82 68 81 bd 4f db 0e be ad d9 3e be 78 4a 9a be
       -0.063187614 -0.13950847 -0.18637724 -0.3013494
0002c0 e3 4a c1 bd 97 34 47 3e e3 4c 56 3d b3 6b e2 bd
       -0.09438112 0.19453655 0.05231942 -0.11055698
0002d0 5c 22 37 be 05 e1 90 be 47 3d c3 3e 7e 71 d7 3d
       -0.17884201 -0.28296676 0.38132688 0.10519694
0002e0 b6 81 35 3e 5f c5 ca bd 9e a8 d7 bd 92 3f a8 be
       0.17725262 -0.09900927 -0.10530208 -0.32861
0002f0 df 8c b7 3e bb 98 8f be 92 9e 49 be e2 27 9c 3e
       0.35849664 -0.28046212 -0.19689396 0.30499178
000300 33 eb d5 be 27 74 d2 3d c2 47 fa bd c7 81 67 be
       -0.41781005 0.102760606 -0.12220718 -0.226081
000310 53 31 e6 be f4 aa 47 be e6 70 23 be 74 20 33 3e
       -0.44959506 -0.19498807 -0.15961036 0.17492849
000320 4e d6 22 be 52 76 37 be 2f d6 4a be 0b 1d 8b be
       -0.15902063 -0.1791623 -0.19808267 -0.27170596
000330 bf b9 58 be ca a2 f4 3d 5a 1b 8e 3e 68 32 3f 3f
       -0.21164607 0.11945112 0.27755243 0.7468629
000340 98 81 29 3d d7 1c 98 be 85 51 8b bd e1 06 23 be
       0.041383356 -0.29709503 -0.06802658 -0.15920593
000350 fb 38 f8 bd e8 14 89 3e 73 8c 6a 3e 24 69 94 3d
       -0.12120243 0.26773763 0.2290514 0.072466165
000360 05 07 0a 3f ce 19 3c be 6c 7a d7 be 3a 1c 19 be
       0.5391696 -0.18369219 -0.42085588 -0.14952174
000370 a2 2c 97 ba e3 ac ec 38 12 8d 12 3e 8a c7 6d be
       -0.0011533687 0.000112855596 0.14311627 -0.2322065
000380 09 02 36 3d 95 8b b3 3e ec ae a3 3e be a0 58 3e
       0.044435535 0.3506743 0.31969392 0.21155068
000390 c3 08 fa bd 96 96 0a 3f 99 56 0b bf f7 f7 83 3d
       -0.122087024 0.54136026 -0.5442901 0.0644378
0003a0 79 08 58 3e c2 39 60 be fd 17 ca be 4b 98 c7 3d
       0.21096982 -0.21897033 -0.39471427 0.097458445
0003b0 18 04 14 3e 48 c0 95 be 50 f1 f9 3d fb af b4 be
       0.14454687 -0.2924826 0.1220423 -0.35290512
0003c0 eb 42 58 3e 03 db 37 be 76 62 d4 3c f5 6c 74 3d
       0.21119277 -0.1795464 0.025925856 0.059674222
0003d0 91 8c 9e be 22 cb 7f be 46 ad cc bd 3f 3c d1 be
       -0.3096662 -0.24979833 -0.09993987 -0.40866277
0003e0 ba 47 e4 be 02 78 fe 3e ba 1d c9 3e e8 38 85 be
       -0.44585973 0.49700934 0.39280492 -0.2601998
0003f0 10 4c 03 3e 9e bb ea 3c 9a 1f 3b 3d 8d 73 a0 3d
       0.12821984 0.028653916 0.045684434 0.078345396
