trained-model/w2.npy (npy, 28928 bytes, 1 tensors)

array f4 [3, 3, 20, 40]
-0.07256444 -0.13044782 -0.13418359 0.17137328 -0.104424395 0.099506035 0.12310252 -0.093891114
-0.23872557 0.10501283 -0.029194495 0.011928953 -0.070390426 -0.112127006 0.20364517 -0.10530322
0.003603184 -0.15534034 0.019616166 0.17633055 0.002839751 -0.06740966 0.055251162 -0.026935788
-0.0094070425 0.08591569 -0.12157607 0.05328493 -0.026005046 0.006741989 0.036576174 0.1502897
-0.15086304 -0.019983293 -0.023730084 0.14101237 0.14322825 -0.071006976 0.006170581 -0.032626744
-0.018745327 -0.05072429 0.04356164 -0.005404458 -0.15985473 -0.08156357 0.057261415 0.030329425
-0.15292738 0.01287729 -0.07271467 0.22871606 -0.20713468 0.018074583 0.07969783 0.01948943
0.06448191 -0.002668641 -0.047264658 0.1115854 0.20705628 0.12097432 0.12648953 0.011298588
0.112776905 -0.018562492 0.10418612 -0.19154541 0.016599577 0.032816358 0.012348393 -0.09154685
-0.03883657 -0.0052666334 0.20389827 0.031564534 -0.11878225 0.010067688 0.037712302 -0.07769892
-0.32500058 0.3252632 -0.14706361 -0.027855506 -0.08663028 -0.34588766 -0.6710856 -0.34569857
-0.20570737 -0.05223801 -0.14475574 0.33793288 -0.48047724 -0.28652477 0.35254836 0.5883973
-0.06709923 -0.52485186 -0.7471212 0.24999721 -0.09175724 0.11387096 -0.30140674 -0.23420812
0.028295701 -0.109992355 -0.66639036 -0.480892 -0.03971011 -0.29546064 -0.13080753 -0.1674163
0.0528439 -0.32056668 0.22591506 -0.3316383 -0.13246901 0.52169806 0.4930921 0.05156557
0.22883695 -0.24413635 0.2161007 0.10997066 -0.049832974 0.27915034 0.25439957 0.32080257
0.15941007 0.05571167 0.08058837 -0.06932925 -0.23406 -0.009097271 -0.041959997 -0.4538942
-0.057166696 -0.09578326 0.37694523 0.1065509 0.12141739 -0.3044076 -0.12426172 -0.27157256
0.10953696 -0.13082202 0.181687 -0.08084725 -0.21742074 0.25228938 0.15100092 -0.1975668
-0.060604226 -0.09418751 -0.29908493 0.59434944 -0.123965144 -0.39979398 -0.17193158 -0.17185761
-0.24741758 -0.44450888 0.02734485 -0.254749 -0.25757813 -0.008203048 0.03021552 -0.04077521
0.09781616 -0.035489213 -0.18108019 -0.021548051 -0.14744696 -0.24895768 -0.10101001 -0.23146178
-0.048444286 -0.30824414 0.45530164 0.27559182 0.30665135 -0.17966081 0.07541117 -0.34510818
-0.31290007 0.08166672 0.24978738 -0.12045221 -0.17040215 0.22742747 -0.26888227 -0.109841086
-0.03685061 0.056429222 0.016657572 0.3076979 -0.05753253 -0.22803019 -0.024742061 -0.50849015
-0.08073015 -0.053852666 -0.00070906186 0.14548872 0.0573424 -0.046388026 0.14839691 0.18820441
-0.267253 -0.10087145 -0.10893811 0.11354187 0.00081187877 -0.039243195 0.17734474 0.07399458
-0.106444016 -0.056934502 0.17394589 0.30769107 0.07482769 -0.26088566 0.17987874 -0.004100607
-0.050384145 -0.21117502 -0.18259634 -0.023290582 0.116977215 -0.024263747 -0.09220698 -0.06118017
-0.0007589897 0.14482868 -0.19445154 0.025981655 -0.045994475 -0.033242602 -0.12522164 -0.072376415
-0.3137007 -0.12430773 -0.22391328 -0.32996765 -0.14946212 0.20348991 -0.20888919 -0.4365872
0.057597633 0.05004719 0.12433083 0.6554816 -0.0033774655 -0.08096887 0.20386459 0.108141534
00000000: aa9c 94bd 1d94 05be 6c67 09be 7a7c 2f3e
00000010: 75dc d5bd d2c9 cb3d 2d1d fc3d fc49 c0bd
00000020: 7a74 74be f710 d73d 4b29 efbc a871 433c
00000030: db28 90bd d8a2 e5bd 5c88 503e 37a9 d7bd
00000040: 6523 6c3b 8a11 1fbe 15b2 a03c ff8f 343e
00000050: 1e1b 3a3b 130e 8abd 0b4f 623d 71a8 dcbc
00000060: ff1f 1abc 91f4 af3d e0fc f8bd 4c41 5a3d
00000070: 8908 d5bc e7eb dc3b e6d0 153d 8be5 193e
00000080: d77b 1abe 01b4 a3bc 9865 c2bc 8c65 103e
00000090: 6daa 123e 1b6c 91bd 9632 ca3b 9fa3 05bd
000000a0: cd8f 99bc 46c4 4fbd b16d 323d e117 b1bb
000000b0: f5b0 23be cd0a a7bd f28a 6a3d 6a75 f83c
000000c0: ff98 1cbe 45fb 523c 6eeb 94bd 8b34 6a3e
000000d0: 1d1b 54be 2611 943c 9e38 a33d 4ca8 9f3c
000000e0: 170f 843d 5ee4 2ebb 9698 41bd e386 e43d
000000f0: 9006 543e 62c1 f73d 7986 013e b61d 393c
00000100: 94f7 e63d 5e10 98bc 885f d53d 7b24 44be
00000110: d6fb 873c 726a 063d ea50 4a3c ea7c bbbd
00000120: 1813 1fbd b993 acbb b5ca 503e d049 013d
00000130: 1c44 f3bd f2f2 243c 3778 1a3d 9d20 9fbd
00000140: 7a66 a6be e688 a63e d897 16be 3b31 e4bc
00000150: 376b b1bd 3018 b1be 44cc 2bbf 67ff b0be
00000160: f4a4 52be 86f7 55bd d93a 14be 8a05 ad3e
00000170: 1d01 f6be 60b3 92be 3881 b43e 35a1 163f
00000180: 526b 89bd b15c 06bf 5643 3fbf 45ff 7f3e
00000190: 38eb bbbd 2e35 e93d fc51 9abe 41d4 6fbe
000001a0: 63cc e73c ac43 e1bd 8f98 2abf 7a37 f6be
000001b0: 11a7 22bd 9e46 97be 69f2 05be 2e6f 2bbe
000001c0: d872 583d 5121 a4be 4756 673e 7fcc a9be
000001d0: f5a5 07be 018e 053f 9176 fc3e 6b36 533d
000001e0: 3c54 6a3e e1fe 79be 8049 5d3e 4c38 e13d
000001f0: a91d 4cbd cbec 8e3e a940 823e 3c40 a43e
00000200: 653c 233e ec31 643d 840b a53d 7efc 8dbd
00000210: 6dad 6fbe b80c 15bc 3fde 2bbd d264 e8be
00000220: a027 6abd 042a c4bd f7fe c03e 5c37 da3d
00000230: aea9 f83d 50db 9bbe ee7c febd 8f0b 8bbe
00000240: ea54 e03d 35f6 05be 280c 3a3e 3e93 a5bd
00000250: 8ba3 5ebe 132c 813e fc9f 1a3e f44e 4abe
00000260: 233c 78bd 62e5 c0bd a921 99be 4927 183f
00000270: 70e1 fdbd ccb1 ccbe d50e 30be 71fb 2fbe
00000280: 095b 7dbe ab96 e3be 4f02 e03c 766e 82be
00000290: 48e1 83be 1466 06bc 8a86 f73c e803 27bd
000002a0: d753 c83d 235d 11bd 166d 39be 8a85 b0bc
000002b0: 56fc 16be c3ee 7ebe 56de cebd 5104 6dbe
000002c0: 846d 46bd 2dd2 9dbe 4c1d e93e 5f1a 8d3e
000002d0: 6801 9d3e 01f9 37be 2c71 9a3d 05b2 b0be
000002e0: 7034 a0be e240 a73d 43c8 7f3e a6af f6bd
000002f0: e77d 2ebe bfe2 683e f0aa 89be 5df4 e0bd
00000300: aaf0 16bd 5422 673d 7675 883c 948a 9d3e
00000310: 3ba7 6bbd bf80 69be ddaf cabc 692c 02bf
00000320: d955 a5bd 9d94 5cbd 56e0 39ba fffa 143e
00000330: dddf 6a3d 5f01 3ebd 5cf5 173e a8b8 403e
00000340: 63d5 88be b195 cebd f21a dfbd a488 e83d
00000350: 43d4 543a 79bd 20bd dc99 353e 788a 973d
00000360: 52ff d9bd 2734 69bd df1e 323e af89 9d3e
00000370: 433f 993d ce92 85be 2232 383e 625e 86bb
00000380: 9b5f 4ebd 443e 58be 89fa 3abe e4cb bebc
00000390: c091 ef3d c4c4 c6bc 03d7 bcbd 0f98 7abd
000003a0: f0f6 46ba f84d 143e 4e1e 47be 7bd7 d43c
000003b0: b464 3cbd 6529 08bd 1a3a 00be 163a 94bd
000003c0: 619d a0be 0d95 febd 8649 65be 85f1 a8be
000003d0: 990c 19be a95f 503e 0ce7 55be 5c88 dfbe
000003e0: 7feb 6b3d 48fe 4c3d 2aa1 fe3d a4cd 273f
000003f0: 7858 5dbb 02d3 a5bd e1c1 503e 4f79 dd3d
