trained-model/w3.npy (npy, 86528 bytes, 1 tensors)

array f4 [3, 3, 40, 60]
000000 a3 5c f7 3e 54 8a 22 3e d0 40 22 be e2 25 59 be
       0.48312864 0.1587308 -0.15845037 -0.21205857
000010 f8 89 81 be 7a 0d da bd e5 79 3a 3d 7c 7f d7 ba
       -0.25300574 -0.10647102 0.045526404 -0.0016441192
000020 e0 fa 81 be 30 a5 dd 3d 91 9e 07 bf bd a8 96 3e
       -0.25386715 0.10822523 -0.5297633 0.29425612
000030 16 18 b0 bc 20 3a b2 be 13 83 42 bd f9 6d b8 be
       -0.02149586 -0.3480997 -0.047488283 -0.36021402
000040 65 99 5d bd 6a f3 e9 bd 69 5f 65 3d 56 1e 9d 3e
       -0.054101367 -0.11423381 0.055999193 0.30687207
000050 d2 2f 1f be 84 27 52 bf 9c 03 97 be bc 6e 0b be
       -0.15545586 -0.82091546 -0.2949494 -0.1361646
000060 5a c7 09 3f e3 7a f9 be 4d d0 b5 be bf 51 b3 be
       0.5381981 -0.48726568 -0.35510483 -0.35023305
000070 5c 70 00 bf b3 d6 33 be 74 66 a4 bd bd 78 a0 bc
       -0.50171447 -0.1756237 -0.08027354 -0.019588822
000080 e7 52 c5 bd f3 e3 e1 be fe 07 8f be 04 1b 0f be
       -0.09634953 -0.44119224 -0.27935785 -0.1397515
000090 d5 b3 48 bf 42 8a 06 be cd 86 1f 3d d5 f1 0f 3f
       -0.783994 -0.13138679 0.038946915 0.5622838
0000a0 19 14 62 3e 05 6f 27 3e fc fa e5 3d 5f ae 9f be
       0.22077979 0.16350944 0.11229512 -0.31187722
0000b0 c6 42 71 bd dd b2 f8 be 16 d3 e3 be 27 3b 59 3c
       -0.05890157 -0.48573962 -0.44496983 0.013258732
0000c0 af 4f 90 be da 10 11 3f 57 f4 0e 3f f5 84 bb bd
       -0.28185794 0.5666634 0.55841583 -0.09156219
0000d0 4f 3a c3 bd 17 05 10 be ff 1d cb bd 10 2d b5 3d
       -0.09532606 -0.14064442 -0.09917831 0.088464856
0000e0 fb 4f 32 bd a6 f8 45 be 04 c2 b2 be 08 86 f0 bd
       -0.043533307 -0.19333133 -0.34913647 -0.117443144
0000f0 62 52 2c be 14 8b 4f bd cc c4 5a be ad 09 da bc
       -0.16828302 -0.050669745 -0.21364135 -0.026615942
000100 a7 ad 1b bd 2f 6d 1e bd 4c cf 1d 3e 53 de 60 be
       -0.038007405 -0.038678344 0.15411109 -0.2195981
000110 e1 47 9c 3e 55 0d ff 3e 5a 5e 14 be d2 e1 67 be
       0.3052359 0.4981486 -0.14489117 -0.22644737
000120 55 2d da bd c6 94 d5 3d 15 97 4b 3d 04 3f 43 3e
       -0.10653178 0.10428767 0.04970463 0.19067007
000130 98 61 f1 bd 0e c5 52 be 78 fc 8a bd 63 fe 40 3e
       -0.11786193 -0.20582983 -0.06786436 0.18847041
000140 c2 39 e1 bd 41 51 fc bd 5c 88 de bd 03 b5 a8 3d
       -0.109973446 -0.123201855 -0.10865852 0.0823765
000150 b7 ab c0 bd 97 00 a8 3d 60 8b f5 bd 14 b6 f1 3e
       -0.09407752 0.082032375 -0.11989474 0.47209227
000160 56 81 c7 3d 75 13 9a 3c a4 cf 42 be 68 35 42 be
       0.09741466 0.018808106 -0.19024521 -0.18965685
000170 5c 2a 43 bd a2 8a 85 3e 5d 62 db be b7 cc 17 3d
       -0.04764782 0.2608233 -0.42848483 0.037060466
000180 b3 0c 50 3e 62 26 2a 3e bf 82 56 3d 1e 0d 53 ba
       0.20317344 0.16616204 0.052370783 -0.0008050966
000190 0c bb 6b 3e 91 f4 c3 bd 80 c8 c1 3d 01 02 df 3d
       0.23020571 -0.09568132 0.094620705 0.10889054
0001a0 b2 6d 34 3d 7d 5c ce 3e 9f 43 b5 be 62 b2 d1 bd
       0.044049926 0.40304938 -0.35403153 -0.10239102
0001b0 a6 7d ef be aa 56 43 bd 43 79 1f 3e f0 c0 0e be
       -0.4677555 -0.04769007 0.15573601 -0.13940787
0001c0 a8 ef d0 bd d6 cb b0 3e 04 a5 8f be 82 bf 83 3e
       -0.10201961 0.34530514 -0.28055584 0.25732046
0001d0 ae 84 92 3d 71 ef aa 3e 1b 92 df 3d 76 49 6e 3c
       0.07154213 0.33385804 0.10916539 0.014543882
0001e0 a0 58 81 3e 92 bc 0a be 87 14 09 be b1 23 6b 3d
       0.25262928 -0.13548496 -0.13386737 0.057407085
0001f0 7d 65 bb bd 7e 64 8e 3c fc 5b 80 be 6a ec 71 3e
       -0.09150217 0.017381903 -0.25070179 0.23625341
000200 f8 3d ff be 98 0a 14 be 58 43 00 bf f2 38 62 3e
       -0.49851966 -0.14457166 -0.5010276 0.22092035
000210 bf 27 c5 bd 24 bd 23 3d 40 85 ad be 2e 47 08 bf
       -0.096267216 0.0399753 -0.33890724 -0.5323361
000220 03 50 11 be b2 31 8b be b3 85 aa bd f9 ab a3 3e
       -0.14190678 -0.27186352 -0.08326282 0.31967142
000230 cb c5 bc bd ab 8e 14 bf c1 73 25 be 9b 1b 7c 3e
       -0.092174135 -0.58030194 -0.16157438 0.24619906
000240 e0 00 03 3f f5 d6 b4 be be 96 9d be 71 f5 e9 bd
       0.5117321 -0.3532025 -0.3077907 -0.11423767
000250 4c db d8 be 6f 3c 24 3d 07 60 21 be b7 ec 63 3d
       -0.4235481 0.040096696 -0.15759288 0.05564567
000260 41 76 59 bc fa cf b3 bd d1 07 e4 bc f7 52 eb bd
       -0.013272823 -0.08779903 -0.027835758 -0.11490434
000270 64 c7 fd be 06 54 f3 3d 90 e3 08 bd 74 f2 7c 3e
       -0.49566185 0.118812606 -0.033420146 0.24701864
000280 88 f3 b4 3e 17 ff 28 3c 6f 8c 5f 3d 08 b1 ea bd
       0.3534205 0.010314724 0.054577287 -0.11459547
000290 de ff 11 be 92 66 8c be 6b dd fe be 52 20 f0 bb
       -0.14257762 -0.27422005 -0.49778304 -0.0073280716
0002a0 65 62 d7 bd d2 e5 39 3f 45 d9 0e 3f 69 6b 96 be
       -0.10516814 0.726163 0.55800277 -0.29378822
0002b0 52 21 b4 bd 4e db c8 be 61 e6 7b be b4 f9 1a 3e
       -0.08795418 -0.39229816 -0.24599601 0.15134317
0002c0 14 24 3e 3d 9f fa bf 3d 13 da d8 bc 3c 7c d1 bd
       0.046421126 0.09373974 -0.026471173 -0.10228774
0002d0 db 72 4a 3e 6a 27 ef bc b5 1e a8 be 04 e0 d5 3d
       0.19770376 -0.029193599 -0.32835928 0.10443118
0002e0 31 63 ff 3c 62 b5 03 3b 55 71 e4 3d ee 79 20 be
       0.031175228 0.0020097126 0.11154429 -0.15671512
0002f0 07 82 a0 3c 6d 2a 28 3e 95 38 e2 3e 22 42 94 be
       0.019593252 0.16422434 0.44183794 -0.28956705
000300 5b 57 aa be a1 3f 31 be da c6 45 be bc 63 6e 3d
       -0.33269772 -0.17309429 -0.19314137 0.058200583
000310 6f 63 c8 be 35 38 ee bd 31 88 50 3c b3 7b d2 3e
       -0.39138362 -0.116318144 0.012727783 0.4111
000320 e0 ec 9e be ce a2 2a bf ba d5 92 be b0 8d ba be
       -0.31040096 -0.6665467 -0.28678685 -0.36436224
000330 4f 21 03 3e 24 f3 2f 3e 92 f7 4b 3e 9e 95 93 be
       0.12805675 0.17182595 0.1991866 -0.28825086
000340 59 5c d0 be 5f 0a 70 3d 1e 6b 05 3e be 1c 2d be
       -0.40695456 0.05860364 0.13029143 -0.16905496
000350 fb 9c 1d 3d d9 b4 60 be 55 04 1f bd 46 e6 fc 3c
       0.038479786 -0.21943988 -0.03882249 0.030871522
000360 66 41 fd be ae 56 13 3e 31 e3 cb 3d de ed fa 3e
       -0.49463958 0.14388534 0.09955443 0.49009603
000370 43 88 b6 3e 2e 9c 85 3e 86 76 de be 90 9e 2a be
       0.35650834 0.26095718 -0.434498 -0.1666205
000380 14 53 77 bd 8c c4 56 3e ae 9e 00 3e 77 b0 0e be
       -0.060381964 0.20973414 0.12560531 -0.13934503
000390 17 bc 3b bd 9f 1c 36 3b 8d 4b 47 3e 06 c0 56 be
       -0.045833673 0.0027788056 0.19462414 -0.20971689
0003a0 a4 f2 02 be 53 ea ce be 76 8a 94 bd aa 56 da 3e
       -0.12787873 -0.4041315 -0.07252972 0.42644244
0003b0 99 1c 97 bd e6 bc db 3d 07 2a a4 be e0 98 e5 bd
       -0.073785014 0.10729389 -0.32063314 -0.11210799
0003c0 dc 48 c7 bc ad b2 c5 bd dd 4d d8 3d 4e 16 b4 3d
       -0.024326734 -0.0965322 0.10561726 0.08793317
0003d0 ae ab 03 3e 3f 35 1c bc 46 e1 58 3d 5d b8 b8 bd
       0.1285846 -0.009534179 0.052949212 -0.090195395
0003e0 3a c8 ab bd a2 42 b7 3d 43 a4 f0 3d fc a3 61 3e
       -0.083877996 0.08948256 0.117500804 0.22035211
0003f0 a5 73 51 3d 86 6f 29 3e 4c fb 34 bd 8d 89 31 be
       0.051135678 0.16546449 -0.044184968 -0.17337628
