trained-model/w5.npy (npy, 288128 bytes, 1 tensors)

array f4 [3, 3, 80, 100]
000000 27 9d 3b be ae 71 2a be 00 fc b2 bd 80 a8 56 be
       -0.18321668 -0.16644928 -0.087394714 -0.20962715
000010 c4 e7 34 bc 9b b3 9f 3c 4b 02 86 bd d6 4c 55 3e
       -0.011041585 0.019494822 -0.06543406 0.20830092
000020 67 a1 82 3d 02 d8 33 be 01 ff 52 3e 3e 17 9a 3d
       0.06378441 -0.17562869 0.20605089 0.07523964
000030 11 ec b8 bd ca 91 22 bd 24 f0 ca 3e 60 a4 e0 bc
       -0.09029401 -0.039689817 0.39636338 -0.02742213
000040 67 05 8e 3e 08 56 6e 3d 8e f5 b6 3d 9a dc c8 bc
       0.27738497 0.058187515 0.089335546 -0.024519254
000050 18 d1 48 3e 3d 87 8c 3e e7 4b 0e be e2 39 d6 be
       0.19611013 0.2744693 -0.13896142 -0.41841036
000060 11 ed 8e bd cc e9 c9 be ea 41 a7 be 66 07 3e 3e
       -0.069788106 -0.39436185 -0.32667476 0.1855751
000070 a7 5c a8 3c 5f 9b df 3d 48 0f 2d be d6 a2 5f bd
       0.020551993 0.109183066 -0.1690036 -0.05459865
000080 e9 31 0f bd 9e cf fb bd f2 cf 1a bd e8 ee 43 3e
       -0.034959707 -0.12295459 -0.03779597 0.19134104
000090 86 1a 94 be 82 f3 19 be 30 59 1d 3e 7c 97 16 3c
       -0.28926486 -0.15034297 0.15366054 0.00919139
0000a0 6a 81 f9 bc 19 aa 46 be d2 fe fb bb b4 20 45 3d
       -0.030457217 -0.19400825 -0.007690289 0.04812689
0000b0 14 23 9f 3d 3e c6 9e 3d f0 85 bb 3a ad 39 88 bd
       0.077703625 0.077526554 0.0014306884 -0.06651626
0000c0 f4 60 dd bd 64 2c 1e be e7 19 47 be 79 3c e3 3c
       -0.10809508 -0.15446621 -0.19443475 0.027738797
0000d0 ef ec a6 bc ae f4 b5 3d 46 ca 18 bd 9b 6e a4 3b
       -0.02037665 0.088845596 -0.037302278 0.005018068
0000e0 57 c9 fb 3e 3b d7 11 bf 2c 41 50 be cd c5 60 bd
       0.49177048 -0.5696904 -0.20337361 -0.054876138
0000f0 d8 83 c1 bd 2b dd ff bc bd 5a 27 3d c2 ad 94 3e
       -0.09448975 -0.03123339 0.04085802 0.29038817
000100 a7 96 96 be bf 24 6c 3e da 02 d7 bc f5 ec 32 bd
       -0.29411814 0.23060893 -0.026246477 -0.04368301
000110 85 c5 af bd 6e 35 84 bd ae 29 9f be 56 2f 02 3e
       -0.08582596 -0.064555034 -0.31086487 0.1271337
000120 5e 6c 26 bc 14 2e 95 3d 61 2a 34 be 8e 47 3d bd
       -0.010157673 0.07284179 -0.17594291 -0.046210818
000130 f8 2e 00 bd ce b7 ee 3d 9c c0 14 3d 79 88 09 bd
       -0.031294793 0.11656152 0.0363165 -0.033577416
000140 71 e1 a0 3c 03 67 13 bd 7d 89 50 3b c9 88 4b bd
       0.019638749 -0.03598691 0.003182023 -0.049690995
000150 e7 ce 30 be 71 40 9e bc 77 8f 13 bf dc 20 f9 be
       -0.17266427 -0.019317837 -0.57640785 -0.48657882
000160 d4 2e 25 3d f3 a3 aa 3d d4 88 33 3d e3 9d e0 bd
       0.040327862 0.08332052 0.04383166 -0.109676145
000170 7c 2a d0 3d ee d2 83 be b2 dc 50 3e 56 f6 0c be
       0.10164353 -0.25746864 0.20396689 -0.13765845
000180 86 0e 3b be ca 6b 19 ba fe d5 27 3d 1c 5f 72 3e
       -0.18267259 -0.00058525486 0.040975563 0.23669094
000190 f4 98 44 be 04 d3 10 bd 91 42 a9 3d f3 67 fb bd
       -0.19198972 -0.03535749 0.0826465 -0.12275686
0001a0 62 76 33 3d ec f4 e2 bd 24 bd b9 bd a8 a8 08 bf
       0.04381407 -0.110818714 -0.09069279 -0.5338235
0001b0 3f b5 0b be 2b ce 09 be 52 d7 cf be 60 a6 50 be
       -0.13643359 -0.13457553 -0.40593964 -0.20375967
0001c0 61 67 85 3e 50 57 27 bd e7 9e 03 bf 69 8d 3e 3e
       0.26055434 -0.040854752 -0.5141434 0.18608631
0001d0 4e b1 0d 3f 95 98 f9 3e fa b4 e5 be 96 ff 83 bd
       0.5534867 0.48749223 -0.44864637 -0.064452335
0001e0 f3 81 8c be db 8a 8b 3e e8 4f 73 3d 97 66 b3 bc
       -0.27442893 0.27254376 0.059402376 -0.021899505
0001f0 48 cb 85 3d 27 23 69 bd 2b 82 8a 3e 3f 06 c3 be
       0.065329134 -0.05691829 0.27052435 -0.38090703
000200 5a 24 10 bf d6 fe 9f 3e f6 22 70 be 7a dd 14 be
       -0.5630547 0.31249112 -0.23450837 -0.14537612
000210 13 fb c2 bb 47 3d 26 be cf 09 d0 ba ab 0f 18 3e
       -0.0059503405 -0.16234313 -0.0015872064 0.14849727
000220 47 91 aa bd 3e 1d 2a be 5b 18 bf bd d6 45 e6 bd
       -0.08328491 -0.16612718 -0.09330817 -0.11243789
000230 dd 45 57 3e d3 c9 99 3e 78 bb 1d 3e 67 f8 09 be
       0.21022744 0.30036792 0.15403545 -0.13473664
000240 dd 0f 0e bf b4 1f f4 3d ca fe 8e be 26 2d b7 be
       -0.55492955 0.119201094 -0.27928764 -0.35776633
000250 f0 35 c7 bd b6 67 2e 3d 33 65 3b 3c da 00 08 be
       -0.09727085 0.042579375 0.011437702 -0.13281575
000260 c2 c4 19 3e ab 5e 1d 3e 50 a5 93 3e bc c6 8a 3d
       0.15016463 0.15368144 0.2883706 0.06776187
000270 d1 18 3f 3d b0 4e e2 bc dd 79 9a 3d 71 99 7b be
       0.046654526 -0.027625412 0.07542775 -0.24570252
000280 c3 98 9c bd f4 2a 91 3e 2d d2 36 3e d2 0f 0f be
       -0.076463245 0.28353083 0.17853613 -0.13970879
000290 f3 c1 fc 3e 26 21 d1 be f5 37 07 be 1a dd 4f be
       0.49366722 -0.40845603 -0.1320494 -0.20299187
0002a0 6d ed 15 be 9b 05 2b 3e 43 25 43 3e 7e 3e 72 be
       -0.14641352 0.16701357 0.19057183 -0.23656651
0002b0 9a 40 d1 3d 16 b7 b0 3e ca e3 b3 3d 98 ae e2 be
       0.102174 0.34514683 0.08783682 -0.4427383
0002c0 a3 67 03 be 43 bb 1d bc f4 a8 ef be 5a b6 22 be
       -0.12832503 -0.009627166 -0.46808589 -0.15889874
0002d0 8a fc 3c 3b a9 dc e4 bb d5 91 98 be 28 17 c2 3b
       0.0028837048 -0.0069843126 -0.2979876 0.0059231706
0002e0 35 5d ea bd 2c 7c a2 be 60 e0 04 3e 01 1d 0a bd
       -0.11443559 -0.3173536 0.12976217 -0.033719067
0002f0 97 98 0a 3e bb f8 03 3f 2b aa 05 be 92 c1 9f be
       0.13534771 0.5155141 -0.13053195 -0.3120237
000300 6e a4 91 3c 72 79 3c bd 8b e7 a9 3e 20 dd 0d 3d
       0.017778601 -0.046014257 0.33184466 0.03463471
000310 c5 01 30 3e 85 a1 d1 bd cd 50 35 be da 1c 4e 3e
       0.17188175 -0.102358855 -0.17706604 0.20128193
000320 5a 34 19 be 10 f6 bb 3d d7 a8 e0 3d 5f d6 9b be
       -0.14961377 0.09177792 0.10969704 -0.3043699
000330 fe 16 8e be b2 a1 78 bd 4b 56 0f be ae 37 a9 3e
       -0.27751917 -0.06070108 -0.13997762 0.33050293
000340 a4 2f 7b 3e 40 dd f3 3e 7c b3 54 be 37 d4 08 3f
       0.24529892 0.47629738 -0.20771593 0.53448814
000350 69 c5 1d be 87 4b c8 3e 77 2a 99 3d 03 06 ab be
       -0.15407337 0.39120123 0.07478803 -0.33403024
000360 61 cb e0 bd 06 4c 77 be a7 7d bc 3e 95 07 c6 3c
       -0.109762914 -0.24150094 0.36814615 0.024173537
000370 f6 56 20 be 70 bb 75 3d 52 60 81 3e b5 ad 4c be
       -0.15658173 0.059993207 0.252688 -0.19988139
000380 1b e1 e4 3c 24 97 3b be db 90 12 3d 57 92 50 be
       0.02793937 -0.18319374 0.035782676 -0.20368324
000390 89 a5 97 3e 42 92 27 be 1f 1a 02 3f b1 99 0d be
       0.2961848 -0.16364387 0.5082111 -0.1382816
0003a0 b0 ac 0c be 25 de cd 3d 9b ad d1 be c3 ca 23 be
       -0.1373775 0.10052136 -0.40952763 -0.15995316
0003b0 1d 8c 36 be 39 eb c8 bd 1a f2 1a 3e 2d af 7f be
       -0.17826886 -0.0981049 0.15131417 -0.24969168
0003c0 2a f9 fb bd af ae ac be d0 85 61 3d f4 b4 37 be
       -0.12303384 -0.33727023 0.055059254 -0.17940122
0003d0 7f 31 25 3e 97 77 ca 3e 09 3f e4 3e 20 09 57 3f
       0.16132163 0.39544365 0.44579342 0.839983
0003e0 69 e9 0d 3d c7 5c 01 bf 41 32 40 be db d5 00 be
       0.034646425 -0.5053219 -0.1876917 -0.1258158
0003f0 0e 8a 3e bd 71 4b 74 3e 95 91 5f bd 58 ff 8d bd
       -0.046518378 0.23856904 -0.054582197 -0.069334686
