trained-model/w6.npy (npy, 360128 bytes, 1 tensors)

array f4 [3, 3, 100, 100]
-0.013952059 0.23500362 -0.23731251 -0.016872024 -0.16335903 -0.32283935 -0.107959926 -0.03722402
0.027643913 -0.10488204 0.15232944 -0.22978131 0.017369322 -0.10069678 -0.10258984 0.20548818
-0.093126 -0.030433726 0.025328886 -0.16261509 -0.07830531 -0.10484607 -0.013783661 -0.121775486
0.03525326 -0.01859326 -0.17246443 -0.12815447 0.14171585 -0.2332604 0.044255424 0.10585028
0.008977167 -0.054454673 -0.065514915 -0.1262987 -0.1943466 0.111059554 0.028400412 0.019011244
-0.15445924 -0.19139299 -0.08639738 -0.0650859 0.14043804 -0.22701313 0.03672914 -0.18797359
-0.2723619 -0.035042103 -0.19159532 0.06651124 -0.06483851 -0.0877409 0.022367442 0.1538466
0.10769371 -0.19132666 -0.042512003 -0.1477149 -0.07536638 -0.0290512 -0.20254695 -0.19206885
-0.010853034 -0.1899756 0.10710643 -0.07854506 -0.15807728 0.009281143 -0.021824753 -0.1595737
-0.36208886 0.15018187 -0.17866866 -0.009641203 -0.21638 -0.024235899 -0.016639924 -0.050209288
-0.26715517 -0.13717234 -0.0030301597 -0.0882595 -0.10510667 -0.085707195 -0.10821006 -0.094278805
-0.038689952 -0.025536874 -0.03919459 0.3713164 -0.08051507 0.080209635 -0.038430344 0.04063588
-0.058066126 -0.12888888 -0.2280871 -0.13288338 -0.1082144 -0.6762179 -0.340559 0.06613982
-0.20498568 -0.9023681 -0.17418873 -0.06048913 -0.2955182 -0.11010808 -0.050654583 0.027106138
-0.1017467 -0.19809815 0.2607293 -0.15800592 -0.2408517 -0.0045819883 -0.07932014 -0.33003062
0.11625385 -0.017678188 0.19404353 -0.06776463 -0.09179784 0.101567425 0.050281685 -0.048347626
0.08690292 -0.17036973 -0.011168166 -0.09440278 0.15721856 0.1460193 -0.26517946 -0.2149266
-0.11633234 0.3444897 -0.104075335 -0.4475349 -0.042780105 -0.8675439 0.3977533 0.45020914
-0.3318534 -0.17479354 -0.09470296 -0.0057397867 -0.22492112 -0.0033937357 -0.13103653 0.054009598
-0.031085812 0.1278274 0.07768915 -0.2947282 0.21839775 -0.027620051 -0.13636322 -0.25062677
-0.033523634 -0.25576088 0.004506254 0.41294813 -0.1184334 -0.31173298 0.50982314 -0.0011467766
0.015981775 -0.6556669 -0.29826286 0.2178669 -0.13985269 -0.059488513 0.053207 0.12762544
-0.062485766 -0.09665645 -0.60977644 -0.5209759 -0.104235366 0.1309298 -0.345142 -0.46578106
0.085064776 0.0060659205 -0.097663835 -0.050799377 -0.020487161 -0.13938135 -0.14470333 0.05568415
-0.05252901 0.106044374 -0.07570851 -0.00033606926 0.042910967 0.15834565 -0.09271769 -0.017252162
-0.06928114 0.092040695 -0.38317776 -0.10399053 -0.027307061 -0.26327533 0.20498917 -0.057816237
0.010705233 -0.066809446 -0.32386038 0.26713854 -0.061198756 -0.19163036 0.06625053 -0.13242678
0.040558908 0.00317263 -0.15514599 -0.5050027 -0.13131543 0.18257119 0.14697307 -0.48426676
-0.054217413 -0.07469666 -0.10467915 -0.12803908 0.020104386 -0.19934791 -0.07705771 0.32017428
0.4255275 0.099320576 0.2013602 -0.15649207 -0.10784056 0.039812203 -0.00429663 -0.82174104
-0.010612892 -0.7678901 0.031452306 -0.19407387 -0.34956503 -0.5207404 -0.06982174 -0.28670037
-0.13076156 -0.11317644 -0.1480734 -0.0017113595 0.094548754 0.32008582 0.17596598 -0.2213274
00000000: 2d97 64bc caa4 703e 0d02 73be 3337 8abc
00000010: 9747 27be 334b a5be 181a ddbd 3778 18bd
00000020: 7d75 e23c 65cc d6bd 40fc 1b3e cb4b 6bbe
00000030: 1c4a 8e3c 1d3a cebd 9f1a d2bd 7e6b 523e
00000040: d8b8 bebd 2650 f9bc 867e cf3c 9284 26be
00000050: 895e a0bd 89b9 d6bd ddd4 61bc 6d65 f9bd
00000060: b965 103d e450 98bc 849a 30be ed3a 03be
00000070: f61d 113e d0db 6ebe 2d45 353d 08c8 d83d
00000080: f814 133c dd0b 5fbd af2c 86bd 7254 01be
00000090: cc02 47be 3173 e33d fba7 e83c 78bd 9b3c
000000a0: 902a 1ebe 86fc 43be 1cf1 b0bd c24b 85bd
000000b0: fdce 0f3e 2176 68be 4b71 163d 267c 40be
000000c0: 0573 8bbe 4f88 0fbd 9031 44be 0c37 883d
000000d0: 0dca 84bd 80b1 b3bd ed3b b73c f789 1d3e
000000e0: 858e dc3d 23eb 43be 1121 2ebd 9342 17be
000000f0: b059 9abd c8fc edbc 7868 4fbe b2ad 44be
00000100: edd0 31bc f788 42be 9e5a db3d 3bdc a0bd
00000110: 03df 21be ef0f 183c d3c9 b2bc 4a67 23be
00000120: b663 b9be 47c9 193e ebf4 36be 23f6 1dbc
00000130: b892 5dbe 5d8a c6bc 7350 88bc 41a8 4dbd
00000140: 90c8 88be e876 0cbe a595 46bb 66c1 b4bd
00000150: 2a42 d7bd 4187 afbd 3c9d ddbd 3f15 c1bd
00000160: 5b79 1ebd b532 d1bc 828a 20bd 2f1d be3e
00000170: 16e5 a4bd f344 a43d 2369 1dbd cf71 263d
00000180: bfd6 6dbd 72fb 03be aa8f 69be 9512 08be
00000190: 839f ddbd 9e1c 2dbf c05d aebe 5074 873d
000001a0: c4e7 51be 9901 67bf 885e 32be 73c3 77bd
000001b0: 294e 97be 5880 e1bd 2e7b 4fbd b10d de3c
000001c0: 9360 d0bd 3eda 4abe 507e 853e 4ecc 21be
000001d0: d4a1 76be 8124 96bb 9972 a2bd c6f9 a8be
000001e0: 8016 ee3d d9d1 90bc 59b3 463e 2fc8 8abd
000001f0: 8200 bcbd 9502 d03d 2bf4 4d3d 2908 46bd
00000200: 28fa b13d 6775 2ebe affa 36bc 3f56 c1bd
00000210: e7fd 203e 1586 153e 9ac5 87be b815 5cbe
00000220: a63f eebd f460 b03e 7325 d5bd 4b23 e5be
00000230: 313a 2fbd 5b17 5ebf 52a6 cb3e d081 e63e
00000240: b0e8 a9be 14fd 32be a0f3 c1bd d214 bcbb
00000250: b951 66be 7069 5ebb 712e 06be 2b39 5d3d
00000260: aca7 febc 30e5 023e 7d1b 9f3d 9de6 96be
00000270: a9a3 5f3e 7243 e2bc cda2 0bbe 2752 80be
00000280: 1450 09bd 17f3 82be 33a9 933b f06d d33e
00000290: 368d f2bd 779b 9fbe c583 023f 704f 96ba
000002a0: 36ec 823c c9d9 27bf e9b5 98be 8018 5f3e
000002b0: 8b35 0fbe 3aaa 73bd 95ef 593d 3eb0 023e
000002c0: 13f1 7fbd d1f3 c5bd 4f1a 1cbf ad5e 05bf
000002d0: 5a79 d5bd 7612 063e 74b6 b0be db7a eebe
000002e0: 7136 ae3d a1c4 c63b fa03 c8bd 0213 50bd
000002f0: b1d4 a7bc fcb9 0ebe 1c2d 14be 1015 643d
00000300: a928 57bd cb2d d93d 100d 9bbd 7432 b0b9
00000310: 69c3 2f3d 5d25 223e c6e2 bdbd 6854 8dbc
00000320: 45e3 8dbd d57f bc3d e02f c4be fdf8 d4bd
00000330: 0fb3 dfbc 06cc 86be aee8 513e b8d0 6cbd
00000340: 0065 2f3c 64d3 88bd 07d1 a5be 62c6 883e
00000350: 8cab 7abd c03a 44be 5cae 873d e39a 07be
00000360: 1921 263d e6eb 4f3b 97de 1ebe db47 01bf
00000370: 8d77 06be f1f3 3a3e 1c80 163e d0f1 f7be
00000380: 1413 5ebd 90fa 98bd 0662 d6bd ad1c 03be
00000390: f4b1 a43c dc21 4cbe 6fd0 9dbd e2ed a33e
000003a0: bede d93e 9668 cb3d 5e31 4e3e 753f 20be
000003b0: 83db dcbd 1f12 233d bfca 8cbb 9f5d 52bf
000003c0: b2e1 2dbc 7294 44bf 22d4 003d 4dbb 46be
000003d0: 30fa b2be 3e4f 05bf b3fe 8ebd 64ca 92be
000003e0: 5ce6 05be 0dc9 e7bd 8ea0 17be b24f e0ba
000003f0: c7a2 c13d 4ae2 a33e 6d30 343e a6a3 62be
