use-trained-model/b10.npy (npy, 4128 bytes, 1 tensors)

array f4 [1000]
-0.1599019 -0.26289302 -0.16641353 -0.1018391 -0.033934664 -0.0066591143 -0.09765402 -0.022061272
0.12324688 -0.10011936 -0.051804557 -0.06466173 -0.03267449 -0.19767264 -0.034823168 -0.06535601
-0.052529037 -0.09296617 -0.23217814 0.11479126 -0.11478091 -0.3014038 0.16170992 -0.05077252
0.08076905 -0.08852556 -0.04148868 -0.052346822 -0.03302886 -0.04700509 -0.17642705 0.080431856
-0.08584542 -0.123505294 -0.09768889 -0.11387928 -0.12687965 -0.027327482 -0.023825036 0.05950549
-0.14628147 -0.04224388 -0.030982986 -0.058413412 -0.08271362 -0.010002629 -0.18752521 0.09213667
-0.32314938 -0.10121603 0.09263441 0.14093587 -0.099296354 -0.15701123 -0.22265774 -0.093249656
-0.06460418 -0.06803345 0.20471315 -0.073189765 -0.0447948 -0.16357425 -0.036257837 -0.2157523
0.024219343 -0.055590097 -0.14748351 -0.06803642 -0.088487424 -0.15222666 -0.017896514 0.0145750735
-0.004463476 -0.022901367 -0.23283531 -0.060302436 -0.05246656 -0.055494387 -0.09300205 -0.15389599
-0.041962907 -0.15261078 -0.18790832 0.049590006 -0.24841177 -0.045944244 -0.06297985 0.022805149
-0.14403474 -0.027725168 -0.02370076 0.053576797 -0.0851423 0.10616431 -0.15475109 0.25660536
-0.23114987 -0.07320312 0.01358138 0.13427293 -0.2092707 -0.18367584 -0.13293456 -0.09479231
-0.10197199 -0.07689003 -0.1534825 -0.058317907 -0.025574973 -0.087117806 -0.07330213 -0.11003345
-0.013373721 -0.09251374 -0.03991176 -0.07536508 -0.0180359 -0.15410711 -0.08792825 -0.052471083
0.16134162 -0.049022723 -0.16257598 -0.087548904 -0.24752975 -0.076141596 -0.12100556 -0.0123335235
-0.07787243 -0.058566857 -0.118426636 -0.13844973 -0.07039819 -0.117569916 -0.0344084 -0.01444353
-0.066384226 -0.03967099 0.17199424 0.034203358 -0.059799697 -0.053204756 -0.089834765 -0.28720665
-0.02041426 -0.14442703 -0.11403724 -0.08082179 0.047671586 -0.010246594 -0.037989426 -0.031549152
-0.10086894 -0.103669666 -0.072026305 0.018780166 -0.1932575 -0.089752406 -0.19695261 -0.06908653
-0.033274926 -0.033879213 -0.08804868 -0.013377173 -0.12380247 -0.08971579 -0.0027975023 -0.16612773
-0.19390468 -0.063608944 -0.16604894 -0.10227731 -0.11707195 -0.25558186 -0.13214812 -0.06451198
-0.09404365 -0.120884985 -0.1686926 -0.057996035 -0.13288955 -0.20007476 -0.07251008 0.11693746
-0.14987166 -0.079342216 -0.13816594 -0.2175489 -0.093670994 -0.11237887 -0.21279168 -0.30092826
0.16057043 -0.057158172 -0.037115376 -0.07898092 0.045872614 -0.16451412 0.027867448 -0.08482824
-0.009605097 -0.09029144 -0.18125944 -0.12213718 -0.10958578 -0.061075713 0.15438291 -0.03715918
-0.30936444 0.14321627 -0.12094856 -0.063792825 -0.075651065 -0.06221431 -0.09361761 -0.1396521
-0.19703053 0.3462218 -0.029403985 -0.03756675 0.07908825 0.08219506 0.019563094 0.010509615
-0.057871595 -0.06429668 0.054715343 -0.15145403 0.003552328 -0.082639225 -0.1457356 0.076732405
0.2743157 -0.04391104 0.058271494 -0.11669077 -0.13030918 -0.16709243 -0.1109029 -0.120532654
0.09534393 0.010564447 0.20738718 -0.09842674 -0.18096535 -0.022206495 0.3529079 -0.072839856
-0.077609636 -0.1875008 0.02995202 -0.04775245 -0.12044426 0.08080908 -0.051392604 0.15082882
00000000: 53bd 23be ea99 86be 4f68 2abe 0591 d0bd
00000010: 13ff 0abd b334 dabb d5fe c7bd d7b9 b4bc
00000020: dc68 fc3d 610b cdbd 0431 54bd 5e6d 84bd
00000030: b0d5 05bd b26a 4abe bda2 0ebd 5fd9 85bd
00000040: b028 57bd 0c65 bebd 1bc0 6dbe ae17 eb3d
00000050: 4112 ebbd 9951 9abe 4997 253e d9f6 4fbd
00000060: 3e6a a53d e44c b5bd 09f0 29bd 9f69 56bd
00000070: 4549 07bd 6988 40bd 4ba9 34be 75b9 a43d
00000080: b9cf afbd 58f0 fcbd 1d11 c8bd 8a39 e9bd
00000090: bdec 01be e2dd dfbc b92c c3bc 07bc 733d
000000a0: cfca 15be eb07 2dbd 08d0 fdbc e742 6fbd
000000b0: c265 a9bd 11e2 23bc 9c06 40be 27b2 bc3d
000000c0: d673 a5be 5a4a cfbd 1cb7 bd3d 7e51 103e
000000d0: e35b cbbd 8dc7 20be 6400 64be adf9 bebd
000000e0: 324f 84bd 1f55 8bbd 53a0 513e 84e4 95bd
000000f0: c17a 37bd 0280 27be 1983 14bd 2cee 5cbe
00000100: a567 c63c 71b2 63bd eb05 17be ae56 8bbd
00000110: e538 b5bd 4ee1 1bbe b69b 92bc 4acc 6e3c
00000120: 5a42 92bb a69b bbbc 616c 6ebe b0ff 76bd
00000130: 2de7 56bd 154e 63bd dc77 bebd e996 1dbe
00000140: 4ce1 2bbd 0046 1cbe 0a6b 40be e41e 4b3d
00000150: a85f 7ebe 0830 3cbd 94fb 80bd ddd1 ba3c
00000160: d87d 13be e41f e3bc 1928 c2bc 5873 5b3d
00000170: 165f aebd ac6c d93d 1277 1ebe c761 833e
00000180: 8db2 6cbe 84eb 95bd 7084 5e3c d87e 093e
00000190: 0f4b 56be 8515 3cbe ff1f 08be 7822 c2bd
000001a0: b1d6 d0bd 8578 9dbd 842a 1dbe c2de 6ebd
000001b0: 9b82 d1bc d26a b2bd 6d1f 96bd 3859 e1bd
000001c0: 741d 5bbc d877 bdbd 837a 23bd 0259 9abd
000001d0: 06c0 93bc 41ce 1dbe ba13 b4bd ebeb 56bd
000001e0: bd36 253e 0dcc 48bd 517a 26be d74c b3bd
000001f0: 7078 7dbe 20f0 9bbd c3d1 f7bd 8c12 4abc
00000200: 957b 9fbd cde3 6fbd aa89 f2bd c4c5 0dbe
00000210: ed2c 90bd 7fc8 f0bd d3ef 0cbd 8ea4 6cbc
00000220: 74f4 87bd 0c7e 22bd 421f 303e d218 0c3d
00000230: 87f0 74bd 3bed 59bd 4afb b7bd c00c 93be
00000240: ce3b a7bc aee4 13be 5b8c e9bd e585 a5bd
00000250: 4843 433d 55e1 27bc cd9a 1bbd af39 01bd
00000260: 6094 cebd c350 d4bd 8782 93bd ddd8 993c
00000270: 4be5 45be 1cd0 b7bd f2ad 49be 3d7d 8dbd
00000280: 4a4b 08bd eec4 0abd de52 b4bd ee2b 5bbc
00000290: 268c fdbd e9bc b7bd 4d56 37bb 631d 2abe
000002a0: f38e 46be 6845 82bd bc08 2abe c476 d1bd
000002b0: 6bc3 efbd a0db 82be d651 07be db1e 84bd
000002c0: f599 c0bd 8c92 f7bd c1bd 2cbe 408d 6dbd
000002d0: 3314 08be 66e0 4cbe 2a80 94bd e87c ef3d
000002e0: f577 19be 2c7e a2bd 5f7b 0dbe 24c5 5ebe
000002f0: 94d6 bfbd e526 e6bd 10e6 59be 4513 9abe
00000300: 936c 243e b01e 6abd 4b06 18bd c0c0 a1bd
00000310: ece4 3b3d 6476 28be 464a e43c 6eba adbd
00000320: b25e 1dbc b8ea b8bd 139c 39be 0f23 fabd
00000330: 826e e0bd 872a 7abd 8e16 1e3e 3934 18bd
00000340: 0465 9ebe 49a7 123e e1b3 f7bd d0a5 82bd
00000350: f2ee 9abd 6fd4 7ebd 97ba bfbd f600 0fbe
00000360: 5fc2 49be fc43 b13e a0e0 f0bc 98df 19bd
00000370: 05f9 a13d e255 a83d c842 a03c 8530 2c3c
00000380: c40a 6dbd faad 83bd 321d 603d c416 1bbe
00000390: 2dce 683b c13e a9bd b73b 15be e125 9d3d
000003a0: 1c73 8c3e 10dc 33bd 17ae 6e3d 92fb eebd
000003b0: c56f 05be 471a 2bbe 0f21 e3bd d3d9 f6bd
000003c0: ae43 c33d 8116 2d3c 4e5d 543e f593 c9bd
000003d0: fb4e 39be 65ea b5bc 58b0 b43e 102d 95bd
000003e0: cdf1 9ebd 3600 40be f05d f53c 1398 43bd
000003f0: 7bab f6bd 3b7f a53d 0d81 52bd df72 1a3e
