use-trained-model/b4.npy (npy, 448 bytes, 1 tensors)

array f4 [80]
00000000: 7972 a23d 50a7 d83d 6345 5abe c7b0 9abe
00000010: f454 0cbe 4709 afbd 266d 6c3d 2e06 89be
00000020: f12a 8c3e 108d ca3e 385b 123f 977e 71be
00000030: e0b3 2cbe 4bf2 a4be 59fd 8d3e 17e0 14be
00000040: 1c8a 9ebe cefc 1bbe 1b2f 5d3e 9aeb 823d
00000050: 98c3 00be a541 bf3e 2a08 fabd 6bf7 93be
00000060: babf be3d eb19 20bd dc08 273f be03 54be
00000070: f7b2 3a3c 6881 e03e 1465 333f de7c 993e
00000080: 1093 4c3e 687d 3abe 804b dabd cdca 62be
00000090: d076 313e 558c 81be 49db ad3d 193f 10be
000000a0: b009 863c 159d 5dbe ce2d a33e 767a 70be
000000b0: 5396 50bc 5872 863e f452 acba bb60 8fbc
000000c0: 7b9c 5d3e f369 98be a943 23be 1eda 203f
000000d0: 91c3 b6bd 0c59 77be 8aad 803e 9304 adbd
000000e0: 27cd 0fbe 69f5 b23e dfd0 4d3e 8ef3 65bd
000000f0: 84cb 1f3e 026b 58be 99b2 c9bd 35a8 1dbe
00000100: 6011 903d 9f3e d73e 937c 973e 5679 c8be
00000110: 02c9 40bd 2483 213e 1a5b 2ebe ae9b 0dbe
00000120: f7c6 343f ed17 9bbe 934e 143d 9e40 33be
00000130: 6965 1fbd f57a 6c3d 616a aabe 808e 883e
0.0793199 0.10578787 -0.21315531 -0.30212995 -0.13704282 -0.085466914 0.05772128 -0.26762527
0.27376512 0.39560747 0.5717044 -0.23583446 -0.16865492 -0.32216105 0.2773235 -0.14538608
-0.30964744 -0.15233156 0.216 0.06392594 -0.12574613 0.3735477 -0.122085884 -0.28899702
0.09313913 -0.039087217 0.65247893 -0.20704553 0.011395208 0.4384873 0.7007611 0.2997808
0.19977975 -0.18211901 -0.10658932 -0.22147675 0.1733048 -0.25302377 0.08489091 -0.1408657
0.016362041 -0.21641953 0.31870884 -0.23484215 -0.012731153 0.26259112 -0.001314728 -0.01750218
0.21641724 -0.29768333 -0.15943779 0.6283282 -0.0892402 -0.24155062 0.251324 -0.08448138
-0.14043103 0.34952858 0.20099209 -0.056140475 0.15604979 -0.2113457 -0.09848518 -0.15396197
0.07034564 0.42039964 0.2958723 -0.39155072 -0.047066696 0.15772682 -0.1702694 -0.13828918
0.70616096 -0.3029169 0.036207747 -0.17505118 -0.03891507 0.05773445 -0.33284286 0.2667122
