use-trained-model/b5.npy (npy, 528 bytes, 1 tensors)

array f4 [100]
00000000: d733 57be 5244 063f a244 003f 98de 34be
00000010: 1ab1 3d3e bcb6 d4bd 8328 93bd 1d8a 763c
00000020: 9d5d e43d bf21 ae3d bb57 27be dc65 89bd
00000030: 0c5b e23e 7cda f03e 5774 193d be0f aa3e
00000040: 85b6 dfbe 88da a33c 2ae4 cb3d f90b 63bd
00000050: 6467 483e 7acd 07be 3399 83bd acc8 ad3d
00000060: 05fa 1abd 5bfd 09be 7937 1fbe 16f7 b5bd
00000070: c02f 2e3e c0da abbc 81da 0b3f 102e 18bd
00000080: 272e ccbd 853b c93d e23c 98be c82e 793e
00000090: 9e56 1cbe d0f0 a3bd f0e8 533a 5eb1 ebbd
000000a0: f43e 3ebe e38f 213f 979c 8e3e adae f5bc
000000b0: 4a79 8fba 0f9a 0e3f 216e 4d3e c138 eebd
000000c0: d76c c6bc 6e4d 5c3e a119 efbd bbd7 02be
000000d0: 83d0 b83e 2f29 913e fcf9 523e 03f8 a3be
000000e0: 36f3 f13d 4c78 913c 1455 5ebe c84d 4bbd
000000f0: 6636 16be 055d 81bc 1e6c 4f3e ff9d 08bd
00000100: 4131 2bbe c1cd febd e894 27bd 21d1 723d
00000110: 64b1 b1bd 9079 253e 7738 503e 157c 943e
00000120: 8292 243f 6cee 8d3e 1d83 34bd b75b 5f3e
00000130: c697 76bd 3388 5cbd fae0 a73e f8f9 59be
00000140: 3ba7 e53e a53c 47be b473 8f3d fbb5 4bbe
00000150: 6240 2ebd 1d33 ecbd 4212 db3d 45d7 a83d
00000160: 4b65 eb3d 43f1 683e 3f17 cabd 353f 16be
00000170: bf08 e83d 8e91 493e 6612 883e 3b18 f8bd
00000180: 1f2e bb3e b51e 853e 0fab 2abe 0f06 b63d
-0.21015869 0.52448 0.50104725 -0.17663038 0.1852459 -0.10386416 -0.07185461 0.015047577
0.11150668 0.0850253 -0.1634206 -0.06708881 0.44210088 0.4704169 0.037464466 0.33215135
-0.4369394 0.020001665 0.09955628 -0.05543134 0.1957069 -0.13261977 -0.06425705 0.08485541
-0.037836093 -0.13475554 -0.15548505 -0.088850185 0.17010403 -0.020978332 0.54630286 -0.037153304
-0.0996974 0.098258056 -0.2973395 0.24334252 -0.15267417 -0.08004916 0.00080837216 -0.115084395
-0.18578702 0.6311018 0.27853844 -0.029990518 -0.0010946181 0.55703825 0.20061542 -0.11631919
-0.02422182 0.21513912 -0.1167481 -0.12777607 0.36096582 0.28351733 0.20603174 -0.32025155
0.11813967 0.017757557 -0.21712142 -0.049634725 -0.14669189 -0.015791425 0.20256087 -0.0333538
-0.16718008 -0.12441588 -0.040913492 0.059281472 -0.08676413 0.16159654 0.2033404 0.29000917
0.64286053 0.27720964 -0.044070352 0.2181233 -0.060203336 -0.053840827 0.3278883 -0.21286762
0.4485415 -0.19456728 0.070044905 -0.19893639 -0.04254187 -0.115331866 0.10696842 0.082441844
0.114939295 0.22748284 -0.09867715 -0.14672549 0.11329793 0.19684431 0.26576537 -0.121139966
0.36558625 0.2599999 -0.16666816 0.08887874
