use-trained-model/b6.npy (npy, 528 bytes, 1 tensors)

array f4 [100]
00000000: 933e 3e3d 3160 90be 106d 73be 9786 98bb
00000010: c0d6 9cbd c35d 2d3e 4e9b 5abc 3502 1ebd
00000020: f17e 81be c5d0 70bd ceed e1be e56e 47be
00000030: 843b 0cbd c1af 0abe 0899 103e d288 73be
00000040: 7ec2 ccbd dd8b 41ba 387f 2bbe 2d38 9a3c
00000050: 794b bcbd f473 ca3e bb5b c0bb 474c a23d
00000060: 2a09 1cbd d89b 3cbd a119 25bc b180 f1bd
00000070: 0d17 35bd 34f1 f43d 5294 19be fd99 d63e
00000080: 2804 f73d 7a40 a3bd a364 1fbd 709c 07bd
00000090: 84e7 d5bc 2d60 c9bd 54de 8bbd 2a3e b4bd
000000a0: 9133 dbbc 364d 533d 0100 adbe 0ada 703e
000000b0: 5a40 45be dd0c 973d 10a3 b7bd 2d26 ccbd
000000c0: 63d6 05be 39fc d43c 4520 15bf 639e 80be
000000d0: 5d2a 023e cffd 36be 34fd 283d b7d6 80bd
000000e0: 3419 d73e 23ce 953e a4d0 e5bd 8254 40be
000000f0: d1ef 9bbc 7a3c a73d 6a94 adbe e626 943e
00000100: 17d0 77be 8624 35be 55e0 733d 535b 3b3e
00000110: 3f2a 4abd 35a0 dd3d bb06 2ebe 6e3a 4d3e
00000120: ca31 96be 87aa 5f3d af47 41be 3d29 25bd
00000130: 0be7 7c3e 2926 9f3e a344 36be 8c13 83bd
00000140: 2219 f9bd b0a2 acbd a28b 01be f1c6 75bd
00000150: 9a74 ed3e 0f3b 30be 6bb4 0c3f f2ae 78bc
00000160: d414 e1bd 5a07 88be e1c6 76bd e373 57bc
00000170: 8ba6 d4bc 2a79 bcbb 9d92 7abc 2f4e 0ebf
00000180: d209 2cbd 82d9 9cbd 5235 42be 9928 3dbd
0.046446394 -0.28198388 -0.23772073 -0.0046547162 -0.07658148 0.16930299 -0.013342692 -0.038576324
-0.2529216 -0.05879285 -0.44126743 -0.19475897 -0.034236446 -0.13543607 0.14120877 -0.23782662
-0.09998034 -0.0007383207 -0.16747749 0.018825615 -0.09194083 0.3954159 -0.00587031 0.07924705
-0.038094677 -0.04604706 -0.010076911 -0.11792124 -0.044211436 0.11960068 -0.14997986 0.4191436
0.120613396 -0.07971282 -0.038914334 -0.033108175 -0.026111372 -0.09832797 -0.06829515 -0.08800919
-0.026757987 0.051587306 -0.33789065 0.23520675 -0.1926283 0.073755 -0.089666486 -0.09968219
-0.13070063 0.025999175 -0.58252364 -0.2512084 0.12711473 -0.17870258 0.0412571 -0.062909536
0.42011416 0.29258832 -0.11221436 -0.18782237 -0.019035252 0.08165832 -0.33902293 0.28935927
-0.24200474 -0.17689714 0.05954011 0.18296556 -0.049356695 0.10821573 -0.16994755 0.2004182
-0.2933486 0.054605987 -0.18875001 -0.04032253 0.24697511 0.310838 -0.1779962 -0.06400213
-0.12162997 -0.08429468 -0.12650922 -0.06000418 0.46378022 -0.17210029 0.54962796 -0.015178429
-0.10990301 -0.2656811 -0.06024826 -0.013150188 -0.02595832 -0.0057517486 -0.015293744 -0.5558805
-0.042001553 -0.07658674 -0.18965653 -0.046181295
