use-trained-model/w1.npy (npy, 2288 bytes, 1 tensors)

array f4 [3, 3, 3, 20]
0	0x3c92a07d	0.017898792
1	0x3c0cd3b5	0.008595397
2	0x3ebc5c97	0.3678939
3	0xbd4ddf77	-0.05026194
4	0xbe839383	-0.2569848
5	0xbe2b3639	-0.16719903
6	0xbe4b5c99	-0.19859542
7	0xbd9a514d	-0.07535038
8	0x3de0170b	0.10941895
9	0xbc5d0ff6	-0.013492575
10	0x3cc0411f	0.023468552
11	0x3ed9d3e6	0.42544478
12	0xbee374ef	-0.4442515
13	0x3df82988	0.121172965
14	0xbdbdceff	-0.09267997
15	0xbf056d3f	-0.5211982
16	0xbe0768f4	-0.1322363
17	0xbe98f731	-0.29876092
18	0xbf03d26f	-0.5149297
19	0xbded8c79	-0.11599059
20	0xbcca9cd0	-0.024732977
21	0xbea6fe97	-0.32616112
22	0x3e633551	0.22188307
23	0xbdf7c85b	-0.12098762
24	0x3e584734	0.21120912
25	0xbe9255e4	-0.28581154
26	0xbeed3e37	-0.4633653
27	0x3cf9d1d6	0.030495565
28	0x3ebe6875	0.3718907
29	0xbe2f328a	-0.17109123
30	0xbd179918	-0.037011236
31	0xbe31423e	-0.17310426
32	0xbeccf896	-0.40033406
33	0xbe1c2f38	-0.15252388
34	0x3b34de27	0.0027598233
35	0xbef38f1b	-0.47570118
36	0xbea412e9	-0.32045677
37	0xbe4da437	-0.20082174
38	0xbf030a4d	-0.5118759
39	0xbec2a279	-0.38014582
40	0xbe34907f	-0.17633246
41	0x3d2548af	0.04035252
42	0x3e8f16c2	0.2794705
43	0xbe4c618d	-0.19959088
44	0xbc20782c	-0.009794276
45	0xbe3df42a	-0.18550172
46	0xbe8f46a4	-0.27983582
47	0xbdbeabba	-0.09310098
48	0x3ed4cda0	0.4156313
49	0xbdb2f719	-0.087385364
50	0x3dde7b6e	0.10863386
51	0xbe9dfa98	-0.3085525
52	0xbe8e0e37	-0.2774522
53	0xbe556f05	-0.20843132
54	0xbe5011a3	-0.20319228
55	0xbeca213e	-0.39478487
56	0xbe59cded	-0.2126996
57	0xbe81f753	-0.25384006
58	0xbedb582c	-0.42840707
59	0xbf0437b8	-0.5164752
60	0xbd8b1c7a	-0.06792541
61	0xbdff65ec	-0.12470612
62	0x3edf2a01	0.43586734
63	0xbe95db09	-0.29268673
64	0xbeae3a82	-0.34029013
65	0xbe8288cf	-0.25495002
66	0xbe64cdf5	-0.22344191
67	0xbe084da8	-0.13310874
68	0x3e8acdfa	0.27110273
69	0x3ea74d3a	0.32676107
70	0x3da21b72	0.07915391
71	0x3eb9a601	0.36259463
72	0xbe4bd42c	-0.19905156
73	0x3bd69092	0.006547996
74	0xbcfe6d22	-0.031057898
75	0xbe375666	-0.17904052
76	0xbe7623cf	-0.24037097
77	0xbda97b28	-0.08275443
78	0xbee302c5	-0.4433805
79	0xbe974ed9	-0.29552343
80	0xbd94f6ab	-0.07273611
81	0xbd9d0889	-0.076676436
82	0x3ebf21a1	0.37330344
83	0xbec470a7	-0.38367197
84	0x3d0d797a	0.034539677
85	0xbe75bc57	-0.23997627
86	0xbec4580d	-0.38348427
87	0x3b93ca18	0.0045101754
88	0x3ef0d3b1	0.47036508
89	0xbe534bf5	-0.20634444
90	0xbda77e75	-0.08178417
91	0xbdd8ab8e	-0.105795965
92	0xbe97480e	-0.2954716
93	0xbc69691e	-0.014246253
94	0xbe01dab5	-0.12681086
95	0xbd85f018	-0.06539935
96	0xbe939902	-0.28827673
97	0xbea3141f	-0.3185129
98	0xbedc43de	-0.4302053
99	0xbedb654c	-0.4285072
100	0xbe33f985	-0.17575653
101	0xbe7719f0	-0.24130988
102	0x3f1667c4	0.58752084
103	0xbeced645	-0.4039785
104	0xbe1554c8	-0.14583123
105	0xbe1cf312	-0.15327099
106	0xbe6d1c5e	-0.23155352
107	0xbca7a938	-0.020466432
108	0x3f1d7a9d	0.6151522
109	0xbec3a27a	-0.38209897
110	0xbd70c83c	-0.05878471
111	0xbe898bc9	-0.2686446
112	0x3dd14b7b	0.10219475
113	0xbe35f73c	-0.17770094
114	0x3d389d77	0.045072045
115	0xbdb58104	-0.088624984
116	0xbe7df7ba	-0.24801531
117	0xbe89e2c0	-0.2693081
118	0xbec6c7bb	-0.38824257
119	0xbefee8e0	-0.49787045
120	0xbccb6bed	-0.024831736
121	0xbdd41fb4	-0.103576094
122	0x3f07fe58	0.5312247
123	0xbea65cbd	-0.3249263
124	0xbef39450	-0.4757409
125	0xbe25595b	-0.16147368
126	0xbe437154	-0.190862
127	0x3dca1d0a	0.0986882
128	0x3dce7b8f	0.10082161
129	0x3eb3424c	0.35011518
130	0x3c29eceb	0.010371427
131	0x3ed03221	0.40663245
132	0xbd922d38	-0.07137531
133	0x3e1526a7	0.14565526
134	0xbd53e68b	-0.051733535
135	0x3d57f0ab	0.052719753
136	0x3d12fa6f	0.035883363
137	0xbda34a33	-0.07973137
138	0xbf360a48	-0.7110944
139	0xbe4a153c	-0.19734663
140	0xbe7b7a99	-0.24558486
141	0xbd84579a	-0.06462021
142	0x3f31e4bf	0.69489664
143	0xbe9cdfde	-0.30639547
144	0xbe6b6cfe	-0.22990796
145	0xbdec43a3	-0.11536338
146	0xbe799221	-0.2437215
147	0x3cf995f5	0.030467013
148	0x3e63bfc7	0.22241126
149	0xbe14aee0	-0.14519835
150	0x3c604616	0.013688585
151	0xbde90849	-0.113785334
152	0xbd96e428	-0.07367736
153	0xbccd201b	-0.025039723
154	0x3d7a9c99	0.0611845
155	0x3e1d256a	0.15346304
156	0xbe28e42a	-0.16493288
157	0xbcee7b40	-0.029111505
158	0xbeb80760	-0.35943127
159	0xbe81b8a5	-0.25336185
160	0xbdc6261c	-0.096752375
161	0xbe4c7aab	-0.19968669
162	0x3f2e9587	0.6819691
163	0xbf313bbc	-0.6923177
164	0xbdfa2024	-0.122131616
165	0x3da54b63	0.080710195
166	0xbe3d23a7	-0.18470632
167	0xbe098e1e	-0.1343312
168	0x3ee06a8f	0.43831298
169	0xbdd64dab	-0.10464033
170	0xbd3b5266	-0.04573288
171	0xbe85c89c	-0.26129615
172	0x3e233d54	0.15941364
173	0xbd9715e0	-0.07377219
174	0xbe26f091	-0.16302706
175	0x3e6b488c	0.22976893
176	0xbe5f5371	-0.21809174
177	0x3dfc417c	0.12317178
178	0xbecf1c06	-0.40451068
179	0xbec6ff03	-0.38866434
180	0xbdb16698	-0.08662146
181	0xbdec650a	-0.11542709
182	0xbe8b2554	-0.27176917
183	0x3ec53584	0.38517392
184	0x3cb3053c	0.021853082
185	0xbe34a274	-0.17640096
186	0xbea7c1bc	-0.32764995
187	0xbdf3b1ec	-0.1189917
188	0x3d40ce44	0.04707171
189	0x3e64e5e2	0.22353318
190	0xbe118525	-0.14210947
191	0x3ee153aa	0.44009143
192	0xbee071a1	-0.43836692
193	0x3b832a44	0.004002841
194	0xbe430547	-0.19044982
195	0xbedc652c	-0.43045938
196	0x3d5cb635	0.053884704
197	0xbeb183bc	-0.34670818
198	0xbed9e526	-0.4255764
199	0xbd2195a1	-0.039449338
200	0xbd6077fc	-0.054801926
201	0xbe0bb345	-0.13642605
202	0xbe96cdd9	-0.29453924
203	0x3e18150a	0.14851776
204	0x3f1092bd	0.56473905
205	0xbe879902	-0.26483923
206	0xbea75820	-0.32684422
207	0xbd9294d2	-0.071572915
208	0x3eb0d06a	0.34534007
209	0xbea2de21	-0.31810096
210	0xbe1f1dff	-0.15538786
211	0xbdc67ebd	-0.09692142
212	0xbf05af58	-0.5222068
213	0xbd0b9ed5	-0.03408702
214	0x3b717434	0.0036842944
215	0xbeecac41	-0.4622517
216	0x3cc85e75	0.024459103
217	0xbe8421fd	-0.2580718
218	0xbe4b7695	-0.19869454
219	0xbdd83a86	-0.105580375
220	0x3a68533a	0.00088624994
221	0xbdbcac2c	-0.09212527
222	0xbe35e920	-0.17764711
223	0x3e814d36	0.2525422
224	0x3eac4ea8	0.3365376
225	0xbe6137b0	-0.219939
226	0xbe85868e	-0.2607922
227	0xbe00ce4d	-0.12578698
228	0x3ed2659e	0.41093153
229	0xbe632e88	-0.22185719
230	0xbe86d6db	-0.26335797
231	0xbeb22f46	-0.34801692
232	0xbee3e628	-0.44511533
233	0xbdd07ce5	-0.10180072
234	0xbb95c18c	-0.0045701917
235	0xbef18c18	-0.47177196
236	0xbe5c26f8	-0.2149924
237	0xbe1863c5	-0.14881809
238	0xbe5a6b70	-0.21330047
239	0xbdeb629f	-0.1149342
240	0x3c915b47	0.01774372
241	0xbdde3649	-0.10850198
242	0x3e2462a3	0.16053252
243	0x3e829d5f	0.2551069
244	0xbe5e8cc2	-0.21733382
245	0xbdac2c2d	-0.08406863
246	0xbe2cc278	-0.16871059
247	0x3cbb2dd2	0.022848997
248	0x3e3ddc1a	0.18540993
249	0x3eef729f	0.46767136
250	0xbe40dc50	-0.18834043
251	0x3f1c6818	0.61096334
252	0xbdbc832a	-0.09204705
253	0xbd0537f9	-0.032524083
254	0x3c892c6a	0.016744811
255	0xbbb3674f	-0.005474962
