use-trained-model/w4.npy (npy, 172928 bytes, 1 tensors)

array f4 [3, 3, 60, 80]
-0.10713297 0.16893959 0.38727674 -0.17025183 -0.10503754 -0.25473267 -0.85720044 -0.048906215
-0.5287762 -0.28341505 0.7038697 0.09685173 -0.19998418 -0.4086232 -0.4535273 -0.2115014
-0.8806681 -0.21120022 0.32493165 -0.117005944 -0.30852503 -0.18153523 -0.14443772 -0.40497017
0.16577376 -0.35378695 0.6743251 -0.3430427 -0.004123934 -0.2918432 0.37719733 -0.10561648
-0.09456643 -0.052514758 0.021456376 -0.6090768 -0.11197947 -0.11213274 -0.0073630274 0.4631172
0.677453 -0.22505534 -0.46980095 -0.13209891 0.33846363 -0.2801641 0.3123656 0.041734286
0.54045516 -0.23398596 -0.20084299 -0.30187526 0.22960486 -0.10298755 0.09891497 -0.27007508
-0.21694429 0.46423867 0.29150552 0.42640373 0.054058414 0.364588 0.061424796 -0.31728503
0.16210583 -0.057438806 -0.099575244 -0.3113442 -0.097885035 0.2432585 -0.19806054 -0.12620714
0.09004434 -0.12970518 -0.14288472 -0.14727151 0.44306073 0.011121127 -0.5759826 0.33881924
0.15917876 0.014999112 -0.09857149 -0.027266854 -0.028127436 -0.114954896 0.10665562 0.06692164
-0.04835331 0.07946653 -0.16363774 0.1473974 0.1586657 0.12636644 0.019997751 0.005501753
-0.16724628 -0.029438624 -0.10060484 -0.09807038 0.12526783 0.12588532 -0.15071376 -0.1770907
-0.09485667 -0.12050179 -0.015722396 0.07238994 0.08995747 -0.04837228 -0.019343494 -0.042602867
0.025817368 -0.08174673 0.019611733 -0.02604702 -0.0042620595 0.09902292 -0.088020794 -0.12765457
0.049897093 -0.030332465 -0.024668252 0.11549883 -0.15848006 -0.036843907 -0.093502685 0.08285538
-0.13265754 -0.066110305 0.09889297 0.04362632 -0.0002671572 -0.08664597 -0.07864897 0.14951688
-0.16180359 0.059251893 0.08412007 -0.14161628 -0.07111713 -0.011094734 -0.16538607 0.03532374
0.050364204 -0.011106302 0.12863268 -0.099565476 -0.019795828 0.0076816143 -0.050194744 -0.079049416
0.08148688 0.03999617 0.021404253 -0.062623434 -0.15515022 -0.097277805 -0.12060465 -0.12723164
-0.10135891 -0.27828044 -0.061035223 0.099524595 -0.021459194 -0.1437207 -0.038493082 0.031127617
0.0311262 0.39674482 0.06804162 -0.26990816 -0.13276829 -0.028929655 0.23432092 0.12726822
0.20208476 -0.27898964 0.34545085 -0.20593214 -0.0005665622 0.23194283 0.112441696 -0.23552491
-0.18277524 -0.24924895 0.25451115 -0.18339859 -0.41501996 0.25892782 0.16631956 -0.3004861
-0.23708054 0.06092811 -0.11578813 -0.13777746 0.07388701 -0.5226353 0.060287133 0.2276093
-0.5168768 -0.26638213 0.14553094 0.12889235 -0.55774033 0.29088205 0.07446006 -0.1996763
0.15657862 -0.011953472 0.033690955 0.08516662 -0.39572367 -0.07028274 -0.29763564 -0.2083466
-0.1438202 -0.05167764 -0.65584236 -0.10976715 -0.5263493 0.13541174 -0.06246567 -0.030266661
-0.2350815 0.11161532 0.2485534 0.3637126 -0.48179838 -0.13041611 -0.1946007 0.0045891297
-0.04940838 -0.08836355 0.03968924 0.0065566953 0.37417996 -0.040825084 -0.00049271394 0.101040564
-0.012918282 -0.088262886 0.075960025 -0.11677051 -0.07879606 -0.050265484 0.02637921 0.10989902
-0.03271922 -0.18011886 0.01779557 0.06729099 0.08588446 -0.11894083 0.08314786 0.10218952
00000000: 8868 dbbd 80fe 2c3e 2349 c63e 7f56 2ebe
00000010: ec1d d7bd 526c 82be 7d71 5bbf e251 48bd
00000020: e15d 07bf c71b 91be ce30 343f 335a c63d
00000030: a7c8 4cbe 0f37 d1be bb34 e8be d393 58be
00000040: 7773 61bf df44 58be 715d a63e d0a0 efbd
00000050: fef6 9dbe 5fe4 39be 7be7 13be 4058 cfbe
00000060: 99c0 293e 9023 b5be 92a0 2c3f 4ba3 afbe
00000070: 1122 87bb 796c 95be 0220 c13e 744d d8bd
00000080: 0bac c1bd b719 57bd 48c5 af3c 75ec 1bbf
00000090: 7e55 e5bd daa5 e5bd 8d45 f1bb b31d ed3e
000000a0: 8f6d 2d3f e874 66be c089 f0be f044 07be
000000b0: 1b4b ad3e ab71 8fbe 62ee 9f3e 92f1 2a3d
000000c0: 455b 0a3f 049a 6fbe c9a9 4dbe 658f 9abe
000000d0: 891d 6b3e 23eb d2bd ef93 ca3d 4847 8abe
000000e0: a526 5ebe b1b0 ed3e 3640 953e 9751 da3e
000000f0: 5b6c 5d3d 47ab ba3e 9198 7b3d 2f73 a2be
00000100: 12ff 253e f444 6bbd 1bee cbbd 8268 9fbe
00000110: f377 c8bd c218 793e 62d0 4abe 723c 01be
00000120: 2b69 b83d 6fd1 04be 5f50 12be 58ce 16be
00000130: dbd8 e23e 6335 363c 9873 13bf b779 ad3e
00000140: c2ff 223e d6be 753c d9df c9bd bd5e dfbc
00000150: 826b e6bc 796d ebbd 436e da3d 360e 893d
00000160: 1f0e 46bd 59bf a23d a790 27be 58ef 163e
00000170: 4379 223e 3466 013e 53d2 a33c 0d48 b43b
00000180: 9c42 2bbe 4529 f1bc e909 cebd 20d9 c8bd
00000190: 3646 003e 15e8 003e b554 1abe 4457 35be
000001a0: 3744 c2bd a4c9 f6bd 41cc 80bc 2d41 943d
000001b0: 9f3b b83d 0322 46bd 3f76 9ebc 5880 2ebd
000001c0: f27e d33c d46a a7bd c9a8 a03c 8f60 d5bc
000001d0: bfa8 8bbb 87cc ca3d 3f44 b4bd e1b7 02be
000001e0: e560 4c3d ca7b f8bc 1315 cabc a78a ec3d
000001f0: 9948 22be a3e9 16bd 567e bfbd 15b0 a93d
00000200: 61d7 07be d764 87bd 6688 ca3d 83b1 323d
00000210: 3b11 8cb9 7173 b1bd b612 a1bd f41a 193e
00000220: d7af 25be 1db2 723d 2547 ac3d dc03 11be
00000230: dca5 91bd b0c6 35bc f75a 29be a0af 103d
00000240: b24a 4e3d 35f7 35bc 49b8 033e fce8 cbbd
00000250: dc2a a2bc 0db6 fb3b 0199 4dbd a9e4 a1bd
00000260: 98e2 a63d 06d3 233d f957 af3c b740 80bd
00000270: b3df 1ebe 9639 c7bd 92ff f6bd 0349 02be
00000280: 4395 cfbd c67a 8ebe 1200 7abd 8dd3 cb3d
00000290: 31cb afbc 852b 13be ecaa 1dbd 58ff fe3c
000002a0: 5ffc fe3c 2322 cb3e 6859 8b3d 6731 8abe
000002b0: 69f4 07be e2fd ecbc d3f1 6f3e 9a52 023e
000002c0: 4fef 4e3e bbd7 8ebe efde b03e e0df 52be
000002d0: 5885 14ba 6c82 6d3e d547 e63d 712d 71be
000002e0: 6f29 3bbe 1e3b 7fbe 494f 823e d7cc 3bbe
000002f0: 7f7d d4be 3092 843e ad4f 2a3e 50d9 99be
00000300: 3ec5 72be c18f 793d 5422 edbd 8915 0dbe
00000310: 1352 973d 6dcb 05bf a4ef 763d 6a12 693e
00000320: 0a52 04bf 3d63 88be 1006 153e 5bfc 033e
00000330: 12c8 0ebf 7eee 943e 847e 983d f277 4cbe
00000340: 2556 203e 7fd8 43bc 87ff 093d d66b ae3d
00000350: 4b9c cabe 66f0 8fbd b363 98be d058 55be
00000360: 9a45 13be efab 53bd 49e5 27bf 99cd e0bd
00000370: d4be 06bf 60a9 0a3e 01dc 7fbd caf1 f7bc
00000380: 34b9 70be 9396 e43d c884 7e3e 8a38 ba3e
00000390: 47ae f6be cd8b 05be 6845 47be 6960 963b
000003a0: 7160 4abd f3f7 b4bd 2f91 223d 8cd9 d63b
000003b0: 8494 bf3e 3438 27bd 7929 01ba 5bee ce3d
000003c0: 34a7 53bc 2cc3 b4bd ee90 9b3d 6125 efbd
000003d0: d45f a1bd 2ee3 4dbd 3719 d83c bd12 e13d
000003e0: 9704 06bd 1471 38be 04c8 913c dccf 893d
000003f0: 31e4 af3d 4097 f3bd 6d49 aa3d bd48 d13d
