use-trained-model/w7.npy (npy, 360128 bytes, 1 tensors)

array f4 [3, 3, 100, 100]
0	0xbe8a50a1	-0.2701464
1	0x3ede5470	0.43423796
2	0x3d976e33	0.07394066
3	0xbccc30e3	-0.024925655
4	0xbf05c05c	-0.5224664
5	0xbdf18494	-0.117928654
6	0x3e695230	0.22785258
7	0x3e1272d6	0.14301619
8	0x3e8b78e4	0.2724067
9	0x3de76183	0.11297896
10	0xbd8d35e1	-0.06895042
11	0xbccd0c3b	-0.025030246
12	0xbeb7ccbd	-0.3589839
13	0xbecaaead	-0.39586392
14	0xbe8f9bc1	-0.28048518
15	0x3ed36da7	0.41294596
16	0xbe65c4af	-0.2243831
17	0x3de5a2a1	0.112126596
18	0x3e44f4b0	0.19233966
19	0x3d34b596	0.044118486
20	0xbe9264fa	-0.28592664
21	0xbd64a098	-0.055817217
22	0x3e672097	0.22571026
23	0x3d8b3aad	0.06798301
24	0xbe627d4a	-0.22118106
25	0xbe95e380	-0.2927513
26	0xbe85bcbd	-0.26120558
27	0x3d8a59cf	0.06755411
28	0x3e964858	0.2935207
29	0xbd4a2bb3	-0.04935808
30	0xbecbbd2f	-0.39792773
31	0xbd9c070d	-0.07618532
32	0xbacfe308	-0.0015860507
33	0x3d014b3c	0.03156589
34	0x3cdac062	0.026703063
35	0xbddc693b	-0.107622586
36	0xbdc84ac2	-0.09779884
37	0x3e90ba6a	0.28267223
38	0x3e8fc683	0.2808114
39	0x3ee6874f	0.45025107
40	0x3d123951	0.035699192
41	0x3cac9528	0.021067217
42	0xbd5047cc	-0.05084972
43	0xbe4f18fa	-0.20224372
44	0xbe692c63	-0.22770838
45	0x3ea3727c	0.31923282
46	0xbe0501a8	-0.12988913
47	0xbd870b97	-0.065940075
48	0xbecdfbee	-0.4023127
49	0x3eaf1b06	0.34200305
50	0x3e519488	0.20466816
51	0xbda513a0	-0.08060384
52	0x3e5159ea	0.20444456
53	0x3e14e761	0.14541389
54	0xbe002b4d	-0.12516518
55	0x3ddf1274	0.108921915
56	0x3e0e4600	0.1389389
57	0xbf568ed4	-0.8381169
58	0xbdbd1f2d	-0.09234462
59	0x3e9496d1	0.29021314
60	0xbf0d0fea	-0.5510241
61	0xbeb7d13d	-0.35901824
62	0xbbcff2d3	-0.0063460856
63	0x3c773f94	0.015090842
64	0x3c5bba32	0.013411092
65	0x3e0a9543	0.13533501
66	0xbe10603f	-0.14099215
67	0x3f12dd86	0.5736927
68	0x3f164d2d	0.5871151
69	0xbd8e1535	-0.06937639
70	0x3e9c9bf1	0.30587724
71	0xbdb321c5	-0.087466754
72	0xbe9993fa	-0.2999571
73	0xbd5b16c4	-0.053488508
74	0xbe882d37	-0.26596996
75	0xbefce931	-0.4939666
76	0xbda7d448	-0.08194786
77	0x3e255589	0.1614591
78	0xbf0b7ea2	-0.544901
79	0x3e51c2ad	0.20484419
80	0xbe9b5045	-0.30334678
81	0xbd97cf14	-0.07412544
82	0xbd9b10ef	-0.07571589
83	0x3e2b8434	0.1674965
84	0x3d25d4c4	0.040486112
85	0x3cd5b9dd	0.026089603
86	0xbe01580a	-0.1263124
87	0xbdd32df6	-0.10311501
88	0x3e6794b2	0.22615317
89	0xbf1f0366	-0.6211456
90	0xbcc8b009	-0.024498003
91	0xbea7e5ce	-0.32792515
92	0xbee08eab	-0.43858847
93	0xbecfa110	-0.40552568
94	0xbe8536ab	-0.2601827
95	0xbf31387e	-0.69226825
96	0xbe8b53f3	-0.27212486
97	0x3e026df0	0.1273725
98	0x3ecdb042	0.40173537
99	0xbe372991	-0.1788695
100	0xbd6280a1	-0.05529845
101	0xbee28331	-0.44240716
102	0xbe1202c5	-0.14258869
103	0xbe81217f	-0.25220868
104	0x3d9746c0	0.07386541
105	0xbded5aff	-0.11589622
106	0x3ea65e31	0.32493737
107	0xbea04fc4	-0.31310856
108	0xbf1a7e74	-0.603492
109	0x3d8116d3	0.063031815
110	0x3e841f5a	0.2580517
111	0xbea9fe3e	-0.33201784
112	0xbf1a243e	-0.6021155
113	0xbd9c2b1b	-0.07625409
114	0xbe24feac	-0.16112775
115	0xbe0cf8b7	-0.13766752
116	0xbe652197	-0.22376095
117	0x3dc797e3	0.09745767
118	0xbde55699	-0.11198158
119	0xbf3250fa	-0.6965481
120	0x3b738f69	0.0037164337
121	0x3c9ad314	0.018899478
122	0x3e130f57	0.1436132
123	0x3a7b8187	0.0009594191
124	0xbea38f03	-0.31945047
125	0xbc97f627	-0.018549992
126	0xbcbacca1	-0.022802653
127	0xbe53188a	-0.2061483
128	0xbd0fa40d	-0.03506856
129	0x3df794a4	0.12088898
130	0x3ddc60d0	0.10760653
131	0x3ef98b94	0.48739302
132	0x3e95b843	0.29242143
133	0xbd92c561	-0.07166553
134	0xbe55d5d3	-0.20882349
135	0xbdb9abad	-0.09065948
136	0x3e9b0b39	0.30282
137	0x3dd1b77d	0.10240076
138	0xbf38f864	-0.72254014
139	0xbc794fe6	-0.015216803
140	0xbe05ce34	-0.13066941
141	0xbe26a9c1	-0.16275693
142	0x3ea33ff3	0.31884727
143	0xbde354a4	-0.11100128
144	0xbe8e5986	-0.27802676
145	0x3f67a893	0.904916
146	0x3c9e9e88	0.019362703
147	0x3e853c89	0.26022747
148	0xbc3aae69	-0.011394122
149	0xbdbcbb43	-0.09215405
150	0xbee5dca4	-0.44894898
151	0xbd685209	-0.05671886
152	0xbe5385c7	-0.20656501
153	0xbeda7910	-0.42670488
154	0x3eadf0a5	0.3397266
155	0x3ec5d8fd	0.3864211
156	0xbe027bcd	-0.12742539
157	0x3d90487c	0.07045075
158	0xbd7d69f2	-0.061868615
159	0xbe1d79dd	-0.15378518
160	0xbc1baf31	-0.009502218
161	0xbd7b4d76	-0.06135317
162	0x3d8f74c4	0.07004693
163	0xbd14557e	-0.036214344
164	0xbee0c474	-0.43899882
165	0x3ef4bd8d	0.47800866
166	0x3ecbd691	0.3981214
167	0xbea6cf5e	-0.32580084
168	0xbdae8b84	-0.08522704
169	0x3e93442f	0.28762957
170	0x3e1d4be1	0.15360977
171	0xbdcf9b7d	-0.10137079
172	0x3ef84ac9	0.48494557
173	0xbdbbc7bd	-0.091689564
174	0x3e5e70aa	0.21722665
175	0x3e9bee33	0.3045517
176	0x3ea49d4d	0.3215126
177	0xbe5d8ab2	-0.2163494
178	0x3df18d6e	0.11794554
179	0xbd74c6e4	-0.05975999
180	0x3e9bd374	0.30434763
181	0xbe90e14e	-0.28296894
182	0xbdbae0cb	-0.09124907
183	0x3e41330a	0.18867126
184	0xbd2ff795	-0.042960722
185	0x3e8f1903	0.2794877
186	0xbf476fc0	-0.7790489
187	0xbed84f0c	-0.42247808
188	0xbddd4bb4	-0.10805455
189	0xbe3b8f21	-0.18316318
190	0x3e83537d	0.25649634
191	0x3e256913	0.16153364
192	0x3e83589b	0.25653538
193	0xbdec3232	-0.115330115
194	0xbe350d44	-0.17680842
195	0x3dbe5211	0.09292997
196	0x3e90df14	0.28295195
197	0x3e59741f	0.21235703
198	0xbe9126cf	-0.2834992
199	0xbe92bae0	-0.286582
200	0xbe1484c2	-0.14503768
201	0xbd750bde	-0.05982577
202	0xbd7ae7fc	-0.061256394
203	0x3e21aa41	0.15787603
204	0xbdc80f54	-0.097685486
205	0xbd40b573	-0.047048043
206	0xbe8c7e65	-0.2744018
207	0xbd10bb22	-0.035334714
208	0xbda1e5d9	-0.07905168
209	0x3c672b8a	0.014109502
210	0x3d81bcfa	0.063348725
211	0xbf2dc695	-0.6788114
212	0x3e8e0b6e	0.27743095
213	0x3e2a7a28	0.16648161
214	0x3e14aec4	0.14519793
215	0xbcdc1f70	-0.02687046
216	0xbede1d14	-0.4338156
217	0xbdda8b52	-0.106711045
218	0x3e5f9187	0.21832858
219	0xbefefb5c	-0.49801147
220	0x3f4393ec	0.76397586
221	0x3f2f2f5a	0.6843163
222	0xbdb8f9c0	-0.09032011
223	0xbcfd7401	-0.030939104
224	0xbdaf4f67	-0.08560067
225	0xbd4dc271	-0.050234262
226	0xbcb6149c	-0.022226624
227	0xbddc7d9e	-0.10766147
228	0x3d8d0282	0.06885244
229	0x3e5f8ef3	0.21831875
230	0xbed9cd6e	-0.42539543
231	0x3ec4103d	0.3829364
232	0x3f2ad015	0.6672376
233	0xbe06718f	-0.13129257
234	0xbebda1f0	-0.3703761
235	0xbe326fb0	-0.17425418
236	0xbe924fa7	-0.28576395
237	0x3e185caa	0.14879099
238	0xbec39e1d	-0.38206568
239	0x3f249dc5	0.6430324
240	0xbe2289a7	-0.15872823
241	0xbd9c1688	-0.07621485
242	0xbea0087e	-0.3125648
243	0x3ebc111a	0.36731797
244	0xbc61ef1e	-0.01378992
245	0xbe88c3c5	-0.2671186
246	0x3e14060b	0.1445543
247	0x3d938801	0.07203675
248	0x3e7feda4	0.24992996
249	0x3cad059d	0.02112084
250	0x3f18f58e	0.59749687
251	0xbe0985c5	-0.13429935
252	0x3d76892e	0.06018942
253	0xbf3c838f	-0.7363824
254	0x3f1ad654	0.6048329
255	0x3f1ba703	0.60801715
