use-trained-model/w8.npy (npy, 360128 bytes, 1 tensors)

array f4 [3, 3, 100, 100]
0	0x3efd80d6	0.49512357
1	0xb99212f7	-0.0002786142
2	0xbe1bea4e	-0.15226099
3	0x3e123e7c	0.14281648
4	0xbb54deee	-0.003248151
5	0x3e0a7366	0.13520584
6	0xbdc9592c	-0.09831461
7	0x3d803d96	0.062617466
8	0xbd46dd3f	-0.04855084
9	0xbde3ee94	-0.111294895
10	0x3ce4d405	0.02793313
11	0x3debcfc9	0.11514241
12	0xbdb5aca1	-0.08870817
13	0x3ea76aee	0.32698768
14	0x3e49b867	0.1969925
15	0xbd6ba3e1	-0.057529334
16	0x3e9b58b2	0.30341107
17	0xbd84ecc1	-0.0649047
18	0xbcf45bb7	-0.02982889
19	0x3dfc47b1	0.123183616
20	0xbe48a363	-0.19593577
21	0xbdce1e6d	-0.10064397
22	0x3dad28da	0.084550574
23	0xbc5e31af	-0.01356165
24	0x3e7a9983	0.24472623
25	0x3e0540a6	0.13012943
26	0x3ce0dcc4	0.02744902
27	0xbd8c5dc7	-0.06853824
28	0xbe8687a6	-0.26275367
29	0xbedae66f	-0.42753932
30	0xbecdea44	-0.40217793
31	0xbe0e69f7	-0.1390761
32	0x3d39878b	0.04529528
33	0x3f1902a9	0.59769684
34	0x3e61d226	0.22052822
35	0xba6f65fd	-0.0009132324
36	0xbe7a48e4	-0.24441868
37	0x3e78a3c5	0.24281223
38	0xbea3c607	-0.3198702
39	0xbda5897b	-0.08082863
40	0x3e26a434	0.16273576
41	0x3db80426	0.08985166
42	0x3dd340e8	0.10315114
43	0x3d14fa92	0.036371775
44	0x3dd05c28	0.101738274
45	0xbee04064	-0.43799126
46	0x3e12321d	0.14276929
47	0x3e756e98	0.2396797
48	0x3c90da70	0.017682284
49	0xbe55d439	-0.20881738
50	0x3ce1d4bf	0.027567266
51	0xbe6ac277	-0.22925745
52	0xbda97b46	-0.08275466
53	0xbe058d2d	-0.13042136
54	0xbe2d8bed	-0.16947909
55	0xbe047e28	-0.1293875
56	0xbe3fec7b	-0.18742554
57	0x3dc60127	0.096681885
58	0x3dfd7b4a	0.12377031
59	0x3c55957c	0.013036128
60	0x3e3ee52c	0.1864211
61	0xbe85c664	-0.26127923
62	0x3e8665cb	0.26249537
63	0x3e6b76ea	0.22994581
64	0x3e54ba2e	0.20774147
65	0x3e06fd68	0.13182604
66	0xbe552f1b	-0.2081875
67	0x3e7eb8b7	0.2487515
68	0xbd629723	-0.055319916
69	0x3e457bb4	0.1928547
70	0xbdfbfc99	-0.123040386
71	0x3e9f76b7	0.3114526
72	0x3e0aa126	0.13538036
73	0x3dcd1e5e	0.10015558
74	0xbd59943d	-0.053119887
75	0x3ddcb3c3	0.10776474
76	0xbd7d4cd1	-0.061840836
77	0x3d903ce0	0.07042861
78	0x3d662a9e	0.056192987
79	0xbec8c50f	-0.39212844
80	0xbcbca10e	-0.023026016
81	0xbc7bff8c	-0.015380751
82	0x3c8210d0	0.015877157
83	0xbe3c6168	-0.18396533
84	0xbd9f0db6	-0.07766287
85	0x3ec91036	0.3927018
86	0x3d5d6768	0.054053694
87	0xbedfa67d	-0.43681708
88	0x3dbedd6c	0.093195766
89	0x3d4f42c4	0.050600782
90	0x3e580760	0.21096563
91	0xbe59dd4e	-0.21275827
92	0xbe88adb7	-0.26695034
93	0xbe23cafd	-0.15995403
94	0xbe0d8454	-0.1382001
95	0xbea79701	-0.32732394
96	0x3b9ec7f7	0.004845615
97	0xbd2b0b0a	-0.041758575
98	0x3e350283	0.1767674
99	0xbed1aa95	-0.40950456
100	0x3e8ac5d8	0.27104068
101	0xbcb89ddb	-0.022536209
102	0xbdfa887f	-0.12233066
103	0xbebc9752	-0.36834198
104	0xbe85c82b	-0.2612928
105	0xbec4a51d	-0.3840722
106	0x3e0d44f4	0.13795835
107	0xbe9bf7e0	-0.3046255
108	0xbdf9d8c6	-0.121995494
109	0x3e82bc73	0.255344
110	0xbda5c7b2	-0.080947295
111	0xbf0bcd28	-0.5460992
112	0xbed23b50	-0.41060877
113	0x3df4197c	0.11918923
114	0xbe85b1f4	-0.2611233
115	0xbdf8b5ac	-0.12144026
116	0xbe101e73	-0.14074115
117	0xbf202484	-0.6255572
118	0xbf1a1780	-0.6019211
119	0xbd409ef1	-0.04702658
120	0xbf0f4756	-0.55968225
121	0xbe01d92c	-0.12680501
122	0x3d60e16c	0.05490248
123	0xbeb8843b	-0.36038384
124	0x3c2b1b65	0.010443543
125	0xbeb88256	-0.36036938
126	0x3e27e01b	0.16394083
127	0xbea24330	-0.31691885
128	0xbe299459	-0.16560496
129	0xbf1de373	-0.61675185
130	0xbe3067aa	-0.17227045
131	0xbec42555	-0.38309732
132	0xbe6c02a4	-0.23047882
133	0x3e433cf0	0.19066215
134	0xbe497b47	-0.19675933
135	0xbe681efb	-0.22668068
136	0xbd7f2355	-0.062289555
137	0xbca543ab	-0.020173868
138	0xbe843ecd	-0.25829163
139	0xbef05b3b	-0.46944603
140	0x3f118819	0.56848294
141	0xbdaa8a6d	-0.08327184
142	0xbdeb827b	-0.114994965
143	0xbf2ccde4	-0.67501664
144	0xbefd6bf1	-0.49496415
145	0x3e9c5641	0.30534557
146	0xbdfaee11	-0.12252439
147	0x3be799d4	0.0070678983
148	0x3ea349d9	0.3189228
149	0xbe029782	-0.12753108
150	0x3ec06c2f	0.37582538
151	0xbdf07d5d	-0.11742661
152	0x3d7c01cf	0.061525162
153	0xbdc287ce	-0.09498559
154	0x3c95bb2d	0.018277729
155	0x3eba9cb3	0.36447677
156	0x3ee52285	0.447529
157	0x3f07f853	0.5311329
158	0x3e25a0cb	0.16174619
159	0x3d795300	0.06087017
160	0x3cdd08c1	0.026981713
161	0xbe10491e	-0.14090392
162	0x3ebec376	0.372585
163	0x3f0e2cd9	0.5553718
164	0xbf3cfa19	-0.7381912
165	0x3ea08f3c	0.3135928
166	0xbea914e8	-0.33023763
167	0x3dcaf842	0.09910633
168	0x3bc4997c	0.005999742
169	0xbba19aef	-0.0049317996
170	0x3e6a3575	0.22871955
171	0x3e1fce51	0.15606047
172	0xbe59f939	-0.21286477
173	0x3da9e39f	0.082953684
174	0x3e2c361b	0.16817515
175	0x3d96b098	0.07357901
176	0xbeb97c3f	-0.36227605
177	0xbefe07b1	-0.49615243
178	0x3e8d0464	0.27542412
179	0x3e3471ff	0.17621611
180	0xbf429e2a	-0.7602259
181	0xbe685395	-0.22688134
182	0x3ccd2840	0.025043607
183	0x3dd6e2da	0.10492487
184	0x3e3d62c4	0.18494707
185	0xbee4b859	-0.44671896
186	0x3b036ebe	0.002005502
187	0xbed8eaee	-0.42366737
188	0xbe9f8e86	-0.31163424
189	0xbf52c16f	-0.82326406
190	0xbc6551ff	-0.0139966
191	0xbe955c60	-0.2917204
192	0xbd44fb5c	-0.048091277
193	0xbddc914c	-0.10769901
194	0xbebb6d77	-0.36606953
195	0x3eedb690	0.46428347
196	0x3e571ab8	0.21006286
197	0x3eab78f7	0.33490726
198	0x3d9099ca	0.07060583
199	0xbd44baeb	-0.04802982
200	0xbd16ca89	-0.036814246
201	0xbab857cc	-0.0014064251
202	0x3e8d94c6	0.27652568
203	0x3e9d0820	0.3067026
204	0x3eabd2dc	0.3355931
205	0x3db27cb7	0.08715194
206	0xbf4e9302	-0.80693066
207	0xbe67578c	-0.2259199
208	0x3e4499ff	0.1919937
209	0xbea0a292	-0.3137403
210	0x3ea574f2	0.32315785
211	0xbdf74937	-0.120745115
212	0xbd207911	-0.039177958
213	0x3dc789ec	0.097431034
214	0xbee32fcb	-0.443724
215	0x3e74aeef	0.23894857
216	0xbd8eaf41	-0.06967021
217	0xbf362908	-0.7115636
218	0x3d185cf6	0.03719803
219	0xbec0f0c4	-0.3768369
220	0xbe6f2cce	-0.23356935
221	0xbf9bc33c	-1.2168956
222	0xbe466885	-0.19375809
223	0xbe920ead	-0.28526822
224	0x3ed1a186	0.40943545
225	0xbe496aa0	-0.1966958
226	0xbcaf61df	-0.021408973
227	0xbea553de	-0.32290548
228	0x3bef6c52	0.007306614
229	0xbe4ffb6d	-0.20310755
230	0xbf0bfc4d	-0.54681855
231	0xbe608e78	-0.21929348
232	0x3e35ef39	0.17767037
233	0xbe1963b2	-0.14979437
234	0xbf1be81d	-0.6090105
235	0xbe57238f	-0.21009658
236	0xbf18f2ea	-0.5974566
237	0xbed055f4	-0.40690577
238	0x3ba1b2e3	0.004934655
239	0xbf4fbf4d	-0.81151277
240	0xbd86fa36	-0.06590693
241	0xbe0f2f83	-0.13982968
242	0xbd8bd63b	-0.068279706
243	0xbe82f06f	-0.2557406
244	0xbe892f0a	-0.267937
245	0xbf03438a	-0.5127493
246	0x3e53cfca	0.20684734
247	0x3ea7bc94	0.3276106
248	0xbe841c1c	-0.25802696
249	0xbd3e40c9	-0.046448503
250	0x3e4097f4	0.18807966
251	0x3c414c30	0.01179795
252	0x3dcccfef	0.10000598
253	0xbe772831	-0.24136426
254	0x3e580a5e	0.21097705
255	0xbf11c435	-0.56940013
